models/cnn_checkpoint.pth (torch, 451527 bytes, 10 tensors)

conv1.weight f4 [16, 1, 5, 5]
000000 c9 2a 14 bd 37 60 d1 3d e0 ed cf bd ce 34 b0 bd
       -0.036173616 0.1022343 -0.10152793 -0.08603822
000010 77 87 ce bd 5b 9b 67 3c 0b 79 9d 3d e9 43 2c 3e
       -0.100844316 0.014136161 0.07689103 0.1682278
000020 e0 21 c3 be 71 c3 97 be 1e e7 8f bd 25 bb 62 3e
       -0.38111782 -0.29641297 -0.07026504 0.22141702
000030 36 e2 88 3e 40 a2 42 3c 0e 22 e7 bd 24 94 61 be
       0.26735085 0.011879504 -0.11285792 -0.22029167
000040 f5 8c bc bc c5 fc 94 3d be 72 31 3d 03 16 18 3e
       -0.023016432 0.072747745 0.043322317 0.14852147
000050 35 59 16 be cc aa 69 bd b6 02 66 3d 97 7d f3 3b
       -0.14682467 -0.05704765 0.05615493 0.007430743
000060 ac 83 16 bd 3f ef ac be f5 7e 23 be ce bc 66 be
       -0.036746666 -0.3377628 -0.15966399 -0.22532961
000070 64 a2 fc bd b5 23 f8 bd b3 fc 2e be d2 dd 64 be
       -0.12335661 -0.121161856 -0.17088585 -0.22350243
000080 ab e0 6a be 3f 41 f0 bd 34 25 8c be d2 c1 71 3e
       -0.22937267 -0.11731195 -0.27372134 0.23609093
000090 8c c2 d7 3d b1 4b da bd df 71 5a be ec f0 9a bd
       0.10535154 -0.10658968 -0.21332501 -0.075654835
0000a0 e1 a9 bc 3d 9c 12 80 3e 1c b7 be bd 94 a3 9e bd
       0.09212089 0.25014198 -0.09312269 -0.07746044
0000b0 5d 32 78 bd a6 05 26 3d b6 2e 93 3d 75 09 65 3d
       -0.060594905 0.04053273 0.07186644 0.055917222
0000c0 6b bd cb bd be f3 a6 bd 10 02 2f 3e 6a 10 2f 3e
       -0.09948238 -0.08151959 0.1709063 0.17096105
0000d0 b8 91 60 be e4 c0 a5 be da bd 35 3e d1 00 46 bd
       -0.21930587 -0.32373726 0.17748204 -0.048340622
0000e0 9b 4c 56 3e 4a 18 81 be 56 94 c5 be 34 32 33 be
       0.2092766 -0.25213844 -0.38589734 -0.1749962
0000f0 ba 37 70 3e 03 af 32 3d 35 94 1d be 7a f4 24 3d
       0.23458758 0.043623935 -0.15388568 0.040272214
000100 94 1d 20 3e 06 00 c7 3d 96 b8 92 3e 8d 13 33 3e
       0.15636283 0.09716801 0.28656453 0.17487927
000110 21 09 8f bd 37 61 15 bd 93 7b 08 be 1a f3 ae bd
       -0.06984163 -0.036469664 -0.1332839 -0.08542462
000120 31 c7 d3 3d 61 5d 74 bb fa 67 9e 3d 30 9d ee 3d
       0.10340727 -0.0037287103 0.07734676 0.11651075
000130 74 db 66 3e 3f 18 c3 3e 58 6c d2 3d 0b af 59 bd
       0.22544652 0.38104436 0.10274571 -0.05314545
000140 a7 45 86 bd 7b 3b 28 3d 3d 70 08 3d 56 5c a8 bd
       -0.06556254 0.04107235 0.033310164 -0.08220737
000150 ba bf 28 be f6 7a c4 3d e9 0b ab 3d 1c b7 63 be
       -0.16479388 0.095937654 0.08351881 -0.2223782
000160 1d 08 e1 be ac 39 91 be 45 27 01 be a2 66 90 be
       -0.43951502 -0.28364313 -0.12612636 -0.28203303
000170 e9 11 13 bf 4a fe 0c bf cc 77 72 bd 78 2d 2d be
       -0.57449204 -0.55075514 -0.05919628 -0.16911876
000180 4e 2f b7 be 6d fd 05 be 5f 4d 08 3d b2 6c c3 3e
       -0.35778278 -0.13084956 0.03327691 0.38168865
000190 e3 3d 8a bd 65 cc 9f 3d 24 f0 8e bd 4e 1b 2e be
       -0.06750085 0.07802657 -0.06979397 -0.17002603
0001a0 13 35 71 3c a4 1e 6f be c7 fc 0d 3e 81 2a 03 3d
       0.014722127 -0.23351532 0.13865958 0.032022957
0001b0 d4 c1 3f be 98 b2 06 bd 8d 8e b1 bd 0c 41 ae 3d
       -0.18726283 -0.032885164 -0.086697675 0.085085005
0001c0 3b 6c 23 be 6c 1b 23 3e 60 a9 e3 3d fa e6 19 be
       -0.15959255 0.1592843 0.1111629 -0.15029517
0001d0 37 ea 2c 3d de f3 b1 bd 79 fb 44 3d b7 39 af bd
       0.042215552 -0.08689092 0.048091386 -0.0855593
0001e0 63 2f 2a 3e 2c 46 3c 3e 20 84 4d 3e d3 48 38 3e
       0.16619639 0.18386143 0.20069933 0.1799653
0001f0 39 c6 b2 be dc ec a4 3d 68 f0 51 3e 6f 77 2a be
       -0.34916857 0.0805299 0.20501864 -0.16647123
000200 53 ba b1 bd fd 17 d9 bd 0d fb 90 3d e4 24 fe 3c
       -0.08678117 -0.106002785 0.07079134 0.03102345
000210 a3 6d b7 be 47 9a f7 bd ce ad 45 be f7 b0 c5 bc
       -0.35825834 -0.12089973 -0.19304582 -0.024132235
000220 24 f5 80 be 65 4d 7c be 67 36 8d bd 98 8d 90 bc
       -0.25187027 -0.24638899 -0.06895142 -0.017645642
000230 12 20 89 bd ad 5f 84 be fd d3 81 bd 55 af ac bd
       -0.0669557 -0.25854245 -0.06339262 -0.084318794
000240 43 63 be 3d 47 61 5f be bd 34 1a be 55 b2 ba bd
       0.092962764 -0.21814452 -0.1505918 -0.091160454
000250 3a cc b8 bc ab 92 8f 3c 28 77 8f be f5 7e 38 3e
       -0.02255832 0.017525991 -0.28020597 0.1801718
000260 21 15 03 bd 58 38 ce bd f0 64 80 bc e4 b1 a2 bd
       -0.032002572 -0.100693405 -0.01567313 -0.07944086
000270 e4 94 f1 3d 2c 20 68 be ee f6 10 3e 51 87 01 be
       0.11795977 -0.22668523 0.14156696 -0.12649275
000280 81 dd c0 3d 40 0c 06 3e 42 3c 56 be 88 13 2f be
       0.094172485 0.1309061 -0.20921424 -0.17097294
000290 d1 87 29 3e 18 13 99 3c 6e 10 26 bc 30 c7 b6 3d
       0.16555716 0.018685862 -0.010135753 0.08924711
0002a0 d9 a5 ff 3d d5 9b b6 bd 82 24 8e bc 0e c8 87 be
       0.12482805 -0.08916441 -0.017351393 -0.26519817
0002b0 5e 8c 11 3c d1 f6 a9 3c f4 92 54 bd e0 7c 40 3e
       0.008883564 0.020747574 -0.051897958 0.18797636
0002c0 33 9a ed bd 3c 78 9f 3d 5a 51 bc bc a7 b5 c5 bd
       -0.11601677 0.07786605 -0.02298801 -0.09653788
0002d0 ba b1 1d 3c da 57 36 be c9 cb ee bc 03 f8 56 be
       0.009624893 -0.1780695 -0.029149907 -0.20993046
0002e0 3e 60 12 be e7 29 98 be 30 04 d3 bd a8 83 15 be
       -0.14294526 -0.2971947 -0.10303533 -0.14601004
0002f0 95 45 47 3e bf 40 2e 3e 6d 1d 5c 3d 9b df 10 be
       0.19460137 0.17016886 0.053739 -0.14147799
000300 ba c1 33 3e 9e 87 ad 3d f2 5d 76 3d 8b d7 be 3d
       0.1755437 0.084731326 0.060148187 0.09318455
000310 92 36 7d 3e d3 72 9e 3d fb 90 15 be 5f 49 18 be
       0.24727848 0.07736745 -0.14606087 -0.14871739
000320 96 80 e4 bd 51 8b 2d 3e 5b 84 95 bc 57 7a 86 bd
       -0.11157338 0.16947676 -0.018251589 -0.06566303
000330 f3 4d 1f 3e 8a 51 42 3e e8 11 44 bc 91 a2 7f 3d
       0.15557079 0.18976417 -0.01196716 0.062410895
000340 4b b1 9b 3d e2 ac ad bd fa ec a9 3e b1 fb 77 3e
       0.07602175 -0.084802404 0.3318861 0.24217106
000350 d8 68 69 3d 87 17 ad be 5d 23 b6 bd 68 de 87 3e
       0.056984752 -0.33807012 -0.08893464 0.2653687
000360 88 d2 11 3d 21 a5 5b be d5 73 90 be fd 5e ea 3d
       0.03560117 -0.2144971 -0.28213373 0.11443899
000370 d5 31 aa 3d e7 1a 09 be d7 2b c5 bc e3 94 84 be
       0.08310286 -0.13389169 -0.024068756 -0.25894842
000380 52 38 04 be d5 da 90 3d 32 23 20 3d ac 77 10 bd
       -0.1291211 0.07072989 0.039096065 -0.035270378
000390 35 ed 86 3d 4c a4 69 bc 3c 6b 51 bd b7 6f 74 3d
       0.065882124 -0.014260363 -0.051127657 0.059676852
0003a0 28 25 57 3e bc 39 63 bd 2f 79 ab be 86 14 62 3d
       0.21010268 -0.05547498 -0.33490893 0.055195354
0003b0 54 cb 7d 3e 6c 81 89 bb 74 61 47 bd bb 2a a1 be
       0.24784595 -0.0041963365 -0.048676923 -0.31477913
0003c0 9d 2b ee 3c 77 d7 a6 3d 1c d3 0e 3e f7 98 65 bc
       0.02907353 0.081465654 0.1394772 -0.01401352
0003d0 21 d3 b2 be a4 a2 d5 3c 15 f8 91 3d c4 b4 59 3e
       -0.34926704 0.02607853 0.07127396 0.21260363
0003e0 f1 d8 3a 3b 86 e4 7a be be 2b db 3d 81 25 32 3d
       0.0028510655 -0.24501237 0.107017025 0.043492798
0003f0 c8 d8 68 3e b2 f2 0f 3e 48 a0 88 3e 4b 4a db bd
       0.22738945 0.14057425 0.26684785 -0.1070753

conv1.bias f4 [16]
000000 07 e3 aa be 58 27 fd bd 2c 47 be be 6a ad 9a be
       -0.33376333 -0.1236102 -0.37163675 -0.3021043
000010 52 04 3c be e0 b3 ff bd 35 87 82 be c4 12 8b be
       -0.18361023 -0.1248548 -0.2549378 -0.27162755
000020 13 97 44 be 52 25 fa 3c c4 e7 39 be 73 d5 80 bd
       -0.19198255 0.030535374 -0.18154818 -0.06290712
000030 54 eb 80 be 19 47 db be e5 62 51 be 87 f4 85 be
       -0.2517954 -0.4282768 -0.20447882 -0.26163122

conv2.weight f4 [32, 16, 3, 3]
000000 ba 5f 23 3e 70 bc 21 3e 9d a1 3a 3d 34 ad 39 be
       0.15954486 0.1579454 0.045564283 -0.18132478
000010 f0 98 eb bd f8 a1 ac 3d e1 02 43 be c2 d6 15 bd
       -0.1150378 0.084293306 -0.19044067 -0.036581762
000020 92 12 fd bd 5d 1a 5b 3d 89 a5 85 bb 2c 4f b2 3c
       -0.12357058 0.05349194 -0.004078571 0.021766268
000030 52 8b 05 be 4e 79 3c bd 45 57 b6 bb f1 96 8e b9
       -0.13041428 -0.046014123 -0.0055646026 -0.0002719681
000040 d7 40 4b 3b 6a d3 8f 3c 59 6f e3 3b 91 20 91 3d
       0.003101399 0.017556865 0.006940764 0.0708629
000050 5c 09 ac 3c 1f 56 56 3d 00 12 9c bc 5f 42 2e 3e
       0.021000557 0.052328225 -0.019051552 0.17017506
000060 9b a3 ba bc ff cd 8d be 11 a5 2c bd cb 72 fc bd
       -0.022783091 -0.27696225 -0.042149607 -0.123265825
000070 c3 d5 85 bc 7c 8a cd 3d 0b e2 27 3e 08 f9 1b 3e
       -0.016337281 0.100361794 0.16394822 0.15231717
000080 f8 b1 d5 3d 61 fd fd bd c5 32 93 3d 64 9d 7e be
       0.104343355 -0.12401844 0.07187418 -0.24864727
000090 34 48 39 bd 6d 1e 5f be b2 8d 5a 3a 3f 63 d9 bd
       -0.045234874 -0.2178895 0.0008337154 -0.10614633
0000a0 eb 80 64 be 2b 20 c2 bd b9 b5 f5 bc 6b 09 86 bd
       -0.22314803 -0.09478792 -0.029993879 -0.06544765
0000b0 52 84 bb bd a2 fa d9 bd 28 58 2d 3d 27 4e 84 bd
       -0.091560975 -0.106435075 0.0423204 -0.06460219
0000c0 3d 2f 8c bc 1c 31 70 3d b0 64 1b bd 49 f2 10 bd
       -0.017112369 0.058640584 -0.03793782 -0.03538731
0000d0 da be 26 bd ad 6a 77 bd f6 1c a8 3d 7a c4 07 3e
       -0.040709354 -0.06040447 0.08208649 0.13258544
0000e0 0a 65 16 bd b0 5b d3 bd 76 d4 25 be 7b af 1f bc
       -0.036717452 -0.103202224 -0.16194329 -0.009746428
0000f0 32 6a 85 be e8 e0 83 bc 23 cc c0 bd 7b 5b b4 bd
       -0.26057583 -0.016098455 -0.09413936 -0.08806511
000100 fe d6 04 be ec 19 dd 3c 07 39 dc bd 96 42 a6 bd
       -0.12972638 0.0269899 -0.107530646 -0.08118169
000110 3d 2c 04 bc b7 7d d8 bd 5e 57 14 bd 3b d6 1f 3d
       -0.008067188 -0.10570853 -0.036216132 0.039022665
000120 90 f6 ce 3d 1c c6 08 3e b8 63 0c 3e f1 1c e6 bd
       0.10105622 0.13356823 0.13709915 -0.11235989
000130 fa 09 df bd 2b 7d b2 bd 1b e1 2d bd d4 b0 fd bd
       -0.10890575 -0.0871528 -0.042451005 -0.12387243
000140 0b 82 db be fa 2a 27 3d 08 7c e9 3d 0d 12 d7 3c
       -0.42872652 0.04081247 0.1140061 0.026253724
000150 5f 1f 98 bd a4 08 d8 bc ef 5c 80 be 94 e8 8b bd
       -0.074278586 -0.026371308 -0.25070903 -0.0683147
000160 60 2b 7c be 52 85 46 be 2f ea 6a be d2 8d 5c be
       -0.24625921 -0.19386795 -0.22940896 -0.21538475
000170 87 15 7d be 2e 14 8a 3e 7c 30 aa bc 1e 5c 03 bd
       -0.24715243 0.2696852 -0.020775072 -0.03207027
000180 e3 e4 3d 3e 14 8e fc 3b c9 33 b5 3c f5 fa 3c 3d
       0.18544345 0.0077073667 0.02211942 0.04613777
000190 be 44 3d 3c d3 4f 31 3d fc 2c 14 3e b3 92 ad 3c
       0.011552034 0.043289017 0.14470285 0.021188116
0001a0 07 d5 0f 3e 5f 15 91 be d7 66 0b be f8 9f 17 be
       0.14046107 -0.28336617 -0.13613449 -0.14807117
0001b0 91 d9 0e 3d 81 bf 86 3d 87 59 d7 bd c0 b0 4f be
       0.034875456 0.06579495 -0.10515123 -0.20282269
0001c0 9a b3 47 be 32 4d 96 3c bc aa 08 3e 5e a3 c3 3c
       -0.19502106 0.018347356 0.1334638 0.02388161
0001d0 ef 2a 42 3d a3 54 c2 3d 0d 24 ce 3d bc ad 2e 3e
       0.047404226 0.094887994 0.1006547 0.17058462
0001e0 9d 40 63 be 87 40 69 be ed 0c 29 be 4a d9 29 be
       -0.22192617 -0.22778521 -0.16508837 -0.16586795
0001f0 12 6a 1c be ec 67 46 bd 0e 18 1a 3c 1d df c5 bb
       -0.15274838 -0.04843895 0.009405149 -0.00603856
000200 d9 a7 1c 3c 78 91 b2 bc 27 47 3c bd fd b3 da bd
       0.009561502 -0.02179788 -0.045966294 -0.10678861
000210 e5 d8 55 be 7a 2f 33 be 13 6d dc 3c 49 56 1d 3d
       -0.2088352 -0.1749858 0.02690748 0.038412366
000220 1f 43 4d bd a7 7c 05 be 08 2a d3 bd 74 27 00 bd
       -0.05011284 -0.13035832 -0.10310751 -0.031287625
000230 19 94 2f 3d e1 ab 1d bd 64 84 99 3c da d1 c2 3b
       0.042865846 -0.038493995 0.018739887 0.0059454264
000240 63 7d a4 3d 45 05 56 3e 33 c3 cf 3c a1 ab 16 3d
       0.08031728 0.20900448 0.025361633 0.03678477
000250 19 a2 df bd 56 60 02 be e3 6e 6d bd 40 26 64 be
       -0.109195895 -0.12732062 -0.057967078 -0.22280216
000260 58 7c 09 bd fd 96 4e bd 1a c1 dc 3c 51 80 a6 3d
       -0.03356585 -0.050436962 0.026947547 0.08129943
000270 44 e4 82 bd 6a a7 03 be 85 8f 25 bd 6d 35 8d be
       -0.063911945 -0.12856832 -0.040420074 -0.27579823
000280 3d e6 85 bc 28 a6 10 3d 2b 7d 9b 3c 5f eb 3e 3e
       -0.016345138 0.03531471 0.018980583 0.18644474
000290 9e f5 1f be 19 18 88 3e db cd f2 3d 99 67 a8 be
       -0.1562104 0.26580885 0.1185567 -0.3289154
0002a0 8d 42 1c 3e ad 83 3f be 56 50 32 bd 6b 65 bd bb
       0.15259762 -0.18702574 -0.043533646 -0.005779912
0002b0 b9 57 6a 3d 1e d3 3e 3d 33 c2 65 3d 92 61 d4 bc
       0.057212565 0.046588056 0.056093406 -0.025925431
0002c0 2f 14 dd bc 00 8d 21 3e 3b 9e 11 3e ca 8e 81 3d
       -0.026987163 0.15776443 0.14220516 0.06326063
0002d0 a2 7c 37 3c 5f da 81 be 1a 79 11 3c d8 fa 8b 3d
       0.011199148 -0.25361916 0.0088789705 0.06834954
0002e0 c8 dc a0 be 5c 02 8d bd d7 e7 8b be 0b e9 97 bd
       -0.31418443 -0.06885216 -0.27325317 -0.07417496
0002f0 0c 62 e9 3d 87 e8 22 be 72 3a 07 3e cb 00 65 bc
       0.11395654 -0.15909015 0.13205889 -0.01397724
000300 81 66 4e bd 86 49 56 3d 55 90 0c be 69 3b 9e 3d
       -0.050390724 0.05231621 -0.13726933 0.07726175
000310 5d f9 8b 3d b4 4f 40 3d e8 34 2d 3e ed ad af bb
       0.06834672 0.04695101 0.16914713 -0.0053613097
000320 17 1c 5e bd 87 e3 59 3d 65 58 b2 3d 7f b9 2f bd
       -0.054226007 0.053195503 0.08708266 -0.042901512
000330 9c 8d 03 3d 64 64 9c bc 8d c2 df 3d 89 51 ee bd
       0.03211747 -0.019090839 0.109257795 -0.11636645
000340 84 4a b1 bd 84 a9 43 3c 1f b8 18 be 13 84 1c be
       -0.08656791 0.011942271 -0.14913987 -0.15284757
000350 35 92 13 be 23 c7 4b be a7 b3 b9 bd b0 4e 2e 3d
       -0.14411242 -0.19900183 -0.09067469 0.04255551
000360 8c d8 1c 3e e7 9d 0a 3e 76 92 4b be 78 be 49 3e
       0.15316981 0.13536797 -0.19880089 0.19701564
000370 bf 3b 06 bd 7b b9 0d be 5a e0 eb 3d c4 d7 88 be
       -0.032771822 -0.13840286 0.11517401 -0.26727116
000380 5f a1 35 3c 23 de 5a 3e e2 33 ae bc 3f 58 69 be
       0.011085837 0.21373801 -0.021264974 -0.2278757
000390 28 58 30 3d 40 63 50 be f1 5b f9 bd 2b c5 b2 bd
       0.043052822 -0.20350361 -0.121757396 -0.08729013
0003a0 1b 12 73 be 8b f7 88 3d 02 39 33 bc 18 81 e7 3d
       -0.23737375 0.0668784 -0.010938885 0.113039196
0003b0 93 c8 08 3e 8d 8a d4 bd de 20 0e be 1c 86 13 be
       0.13357763 -0.10377989 -0.13879725 -0.14406627
0003c0 b6 2c 84 3b 7c b8 d5 bd d6 62 29 bd e0 20 16 3d
       0.0040336503 -0.10435578 -0.041354023 0.036652446
0003d0 e9 bc 95 3d 4e 9b 85 3d 1d cf b2 bd dd 01 4b be
       0.073114224 0.06523763 -0.0873091 -0.1982493
0003e0 84 25 e5 bd 92 e3 a9 3d 9a 73 89 bd 88 15 09 be
       -0.11188796 0.08295359 -0.067115024 -0.1338712
0003f0 8e 65 7f bd 18 8e 46 be 87 fc f4 bd 54 03 bd bd
       -0.06235271 -0.19390142 -0.11962228 -0.092291504

conv2.bias f4 [32]
000000 28 22 68 bd 38 6d 30 3d cd 21 bc bd 78 9c 12 bb
       -0.0566732 0.04307291 -0.091861345 -0.0022371095
000010 6b 92 b3 bd 37 3a e5 ba 78 a4 d9 3b 1e 05 70 3d
       -0.087681614 -0.0017488663 0.0066419207 0.05859863
000020 65 c7 da bd 0f 9f 7b 3b 45 2d 3e 3d 08 e9 a0 3c
       -0.10682563 0.0038394367 0.04642989 0.019642368
000030 1e 1c 4e 3c e3 f5 aa bc 59 20 1c 3c 38 a9 67 bd
       0.012579946 -0.020869201 0.009529197 -0.056557864
000040 32 95 2d bd b7 45 17 3c 7c 03 07 bc 5d e5 c7 3b
       -0.042378612 0.00923293 -0.008240577 0.0061003403
000050 a1 af a1 ba dc 48 2c bd f0 8c 17 bd cb 91 2b 3c
       -0.0012335667 -0.04206167 -0.036999643 0.0104717715
000060 d4 66 40 be 36 48 a6 bd 70 da 88 3d b3 52 50 bd
       -0.18789226 -0.08119242 0.06682289 -0.050860118
000070 1f c7 1a bd 56 50 95 bd 5f bf a0 bd fb c8 6d bd
       -0.037787553 -0.072907135 -0.07849001 -0.058052998

fc1.weight f4 [120, 800]
000000 44 cb 97 bd 8c a9 ee bd 4a 2e 89 bc b9 af 20 3d
       -0.07411817 -0.11653432 -0.016745705 0.039230082
000010 a8 9d 36 3e ac 74 24 bd 6a 4e c7 3c b2 7d c3 3b
       0.17833579 -0.04015033 0.024329383 0.005965912
000020 5f 30 97 bc 31 cc cd 3c 47 c8 0f 3e 83 27 e1 bd
       -0.018455682 0.02512178 0.14041243 -0.109938644
000030 19 00 e5 bc 63 05 36 3e 3d d9 db 3d 54 5e 10 3d
       -0.027954148 0.17775492 0.10734794 0.03524621
000040 ea e3 e4 3c ce 22 b6 bc 41 46 45 be e8 d3 9b bd
       0.02794071 -0.022233393 -0.19265081 -0.07608777
000050 c4 93 d5 bd ab fd fe 3b 73 15 f0 bc 47 3b c3 bd
       -0.10428575 0.0077817044 -0.029307103 -0.09532791
000060 04 fc 2c be 8f 24 c5 3d 5c 3d 8c 3c 96 c8 84 be
       -0.16893011 0.096261136 0.017119102 -0.25934285
000070 29 da 11 be ea 3d cc 3d 11 22 73 3d 23 bd 04 be
       -0.14243378 0.09972747 0.05935866 -0.12962775
000080 3a fb 6e be 94 9f 36 bb 70 36 08 bd cc e1 92 bd
       -0.23338023 -0.0027866112 -0.03325504 -0.071719736
000090 2c 59 e0 bd 7a 06 22 be ab db a2 bd e5 08 21 3d
       -0.10954508 -0.15822783 -0.079520546 0.039315123
0000a0 17 f3 5b 3e 82 c9 d4 bd 6e 61 09 bd 14 a9 1d bc
       0.2147945 -0.10389997 -0.03354018 -0.009622831
0000b0 4c 61 a5 3b 1b a8 fe bc 79 43 ea bd f7 7d 64 bd
       0.005046999 -0.031086018 -0.11438651 -0.055784192
0000c0 d9 c3 b9 3d 1b 5f e7 3d e2 55 b9 bd 8e 94 e2 3d
       0.09070558 0.11297437 -0.09049584 0.11063491
0000d0 38 5d 0c 3e 34 7c 30 bd bd f7 03 be 1e 31 38 bd
       0.13707435 -0.0430872 -0.12887473 -0.044968717
0000e0 42 c0 19 3c 22 11 b9 ba c4 0f 2d bb b2 b0 34 3e
       0.009384217 -0.0014119486 -0.0026407102 0.17645529
0000f0 b8 b0 4f bd 5a 7d bd 3d 7e c5 6c 3d cf a2 29 3e
       -0.05070564 0.092524245 0.05780553 0.16566013
000100 26 c4 6a 3d d4 70 f1 bc 40 63 18 bd 46 b8 82 bb
       0.057315968 -0.029472746 -0.037204027 -0.0039892523
000110 26 56 81 bc 93 ab 90 3b 33 79 b7 bd b5 a2 a8 3d
       -0.01578815 0.0044149845 -0.08958664 0.08234159
000120 74 34 5d bd d8 8e 8f be 99 69 1a be d1 f3 c4 3d
       -0.0540051 -0.2803867 -0.15079345 0.09616817
000130 35 c0 27 3e 0a 9e 7d 3c 02 83 eb 3d 4f 36 80 3c
       0.16381915 0.015479574 0.11499597 0.015650896
000140 82 77 55 bd 62 01 18 bd 53 cb 47 be 3e e3 25 be
       -0.052115925 -0.037110694 -0.19511156 -0.16199967
000150 80 4b 0b be 16 36 91 be 22 52 87 bd ac 29 a4 bb
       -0.1360302 -0.28361577 -0.066074625 -0.0050098505
000160 23 ca 63 3d 96 3a d8 bd 60 7c 25 bd 3d 7f d8 bd
       0.055612694 -0.105580494 -0.040401816 -0.10571144
000170 74 07 d0 bd dc 71 89 bd 99 8e cb bc 87 d7 df 39
       -0.101576716 -0.0671117 -0.02484827 0.00042694455
000180 0f b2 47 3e c4 5d 80 bc 11 1e 5c bd c4 ab f9 bc
       0.19501518 -0.015669711 -0.05373961 -0.030477412
000190 f5 1b 0a 3d 62 00 5a 3d b4 cc 74 3d a7 1a 1c bd
       0.03371807 0.05322302 0.059765533 -0.038111355
0001a0 c5 ce 65 be 81 ab d0 bd ed 33 13 3d 5f 4a 6c 3c
       -0.22442158 -0.10188962 0.035938192 0.014422028
0001b0 39 01 16 3d a7 50 5f be 63 80 dc 3c 6d 2d 90 3d
       0.03662226 -0.2180811 0.026916688 0.07039914
0001c0 10 10 c1 bc 80 e9 20 be 88 10 e6 ba 42 6e eb 3d
       -0.02356723 -0.15714073 -0.0017552534 0.114956394
0001d0 9e 63 e6 3c bb a0 10 bd 69 88 15 3e c7 e2 6a 3e
       0.028123673 -0.035309535 0.14602818 0.22938071
0001e0 5a 0c 53 3d 16 77 90 3e ef c3 b4 3e a9 f3 c2 3c
       0.05152545 0.28215855 0.35305735 0.023797827
0001f0 c6 a0 df be 8a a0 a3 bd 62 fe 05 bc 00 c5 04 3e
       -0.43677348 -0.07989605 -0.008178325 0.12965775
000200 99 0d 5c 3e 47 fe c2 3c 07 3b b6 3c 01 06 66 3c
       0.21489562 0.02380289 0.022244943 0.014039517
000210 e6 87 0d 3e 77 fe 11 3d 31 c7 6f 3d db 20 99 3d
       0.13821372 0.035643067 0.058539573 0.0747697
000220 d9 6b 97 3d 8b d9 c3 3c 68 b6 0f 3e 64 c6 c8 3d
       0.07393617 0.023907444 0.14034426 0.09803465
000230 72 21 8a bd 04 1f 12 3e e2 8c d5 3c 3e 3c 40 3d
       -0.067446604 0.14269644 0.026068155 0.04693245
000240 16 be 51 bc cf bb 47 bd 67 aa 4e 3c 5d 43 a7 bd
       -0.012801668 -0.048763093 0.012613869 -0.081671454
000250 e2 4f 8a be c1 b5 d7 be 1b 6a 1a 3d df 72 c3 3d
       -0.2701407 -0.42130855 0.037698846 0.09543394
000260 2f 3d 58 3c 43 2c 16 bc 35 1b 46 3d 65 82 ae 3d
       0.013198181 -0.009165826 0.04836579 0.085209645
000270 1f ed 9e 3b 01 c5 40 3d f5 a3 aa 3d 5f 79 54 3d
       0.0048500444 0.047062878 0.083320536 0.05187356
000280 4e da 13 bc dc c5 2c 3c 6a a1 cc 3d c9 8c 03 3e
       -0.009024216 0.01054522 0.09991725 0.12846674
000290 fc 4f 04 3d d3 e4 9a bd 7f 40 85 3d 89 e6 d9 ba
       0.03230284 -0.07563176 0.06506442 -0.0016624491
0002a0 f2 0a 58 3d 88 e0 ae 3d c1 a9 9a 3c 32 5e 6c 3d
       0.052744813 0.0853892 0.018879773 0.05770702
0002b0 a6 d5 be 3d ea ab f8 3c 1f f9 9f 3d 5b e0 82 bd
       0.09318094 0.030355413 0.07811188 -0.06390449
0002c0 fc ae 6e bd 70 10 91 bd 5e 30 1a 3d 1c b9 ea 3d
       -0.058272347 -0.07083213 0.037643783 0.11461088
0002d0 55 44 c1 3d 5c 3a 8e 3e bd 01 10 bc 17 e4 93 bc
       0.094368614 0.277789 -0.008789477 -0.018053098
0002e0 6c fa 26 3e 85 68 c3 3d eb 84 3f 3e cd 29 83 3c
       0.16306466 0.0954142 0.18703048 0.016011143
0002f0 fa ff e2 3c 76 86 6a 3d 26 a7 33 be 51 7c 39 3d
       0.02770995 0.05725714 -0.17544231 0.045284573
000300 f9 ad 05 3e 36 a8 7e bc 72 99 eb 3c ee ca 2c 3c
       0.13054647 -0.015543034 0.028759692 0.010546429
000310 df 38 a5 bd 5b fe f1 bd ef b5 39 be 68 dd 15 bb
       -0.08067488 -0.118160926 -0.18135808 -0.0022867564
000320 3d f6 74 3c 44 5d fd 3c f1 c7 8b 3d 97 cd ff 3d
       0.014951286 0.030928262 0.06825245 0.12490385
000330 cd 8a 13 3d 7d 6a c8 3c 95 7c f2 bd 9b 92 8b be
       0.036021043 0.02446484 -0.118401684 -0.2726029
000340 69 12 61 be ce 93 8b bd 51 96 04 3d ff 89 ff bc
       -0.21979679 -0.06815301 0.032369915 -0.031193731
000350 26 f2 24 bd c2 40 51 bc b9 cd cf 3b 23 85 86 3d
       -0.040269993 -0.012771787 0.0063416627 0.065683626
000360 62 8f 2c bd 77 2e c7 bd dd ba a2 b8 57 92 ef 3b
       -0.042128928 -0.09725659 -7.759568e-05 0.0073111462
000370 28 c6 4a 3e 0e 69 00 3e 6c 4e 03 be 5e 74 48 bd
       0.19802153 0.12540075 -0.12822884 -0.0489391
000380 c4 4a 50 bd 5d f2 06 3b 5d 04 99 3d ca 76 5a 3d
       -0.050852552 0.0020591237 0.07471535 0.053335942
000390 e0 72 a7 bb 4a 34 48 bd ab 70 17 bd 2d 69 40 be
       -0.0051101297 -0.04887799 -0.036972683 -0.18790121
0003a0 be ae 08 be 85 79 96 bd a3 ce 22 3d fd 69 8e 3d
       -0.13347909 -0.07347397 0.039747845 0.069538094
0003b0 3e 85 23 3e 50 4d dd bd 37 c2 33 bd 72 05 83 bd
       0.15968797 -0.10805762 -0.04388639 -0.06397523
0003c0 d5 b4 55 3d 16 df 0d 3e 6e 5b 97 3b 61 31 ed 3d
       0.052174408 0.13854632 0.0046190536 0.11581684
0003d0 c6 6e 05 3e fa fe d6 3d 0e 86 5f bc a1 de 31 bd
       0.13030538 0.10497852 -0.013642801 -0.043425206
0003e0 f4 8c 82 3d 75 5b 0c 3d d3 36 62 bd 5f 40 49 be
       0.06374541 0.034266908 -0.055228066 -0.19653462
0003f0 8d f0 d0 bd 42 35 4b be b9 e7 71 3d 87 44 44 bd
       -0.102021314 -0.19844535 0.05905888 -0.047916915

fc1.bias f4 [120]
000000 42 87 34 bc 37 56 9a bc b5 73 68 3c ca c0 a2 bd
       -0.011018576 -0.018839939 0.014187743 -0.07946928
000010 fc 0b 68 3c 45 95 17 bc bb 31 23 bc 08 60 8b 3c
       0.014163014 -0.009251897 -0.009960587 0.017013565
000020 fc 63 ea 3c 54 0a 2b 3c b1 60 fd 3c bf d3 a2 bb
       0.02861213 0.010439474 0.030929895 -0.0049690898
000030 fc 37 2e bd e6 e9 57 bc d5 c7 83 bd fc 6c 64 3c
       -0.04253386 -0.013178324 -0.06434599 0.0139419995
000040 da 22 ad bc c4 91 55 bd bb 80 c3 3c 45 de 39 bc
       -0.021134783 -0.052140966 0.023865094 -0.011344497
000050 6e f0 4c bd c0 fa 45 bc 65 5f a6 bc 3f 59 79 bd
       -0.05003398 -0.012083709 -0.02030916 -0.060876127
000060 7b 1b ff bc c5 49 60 3c d9 81 d3 3b 43 44 af 3c
       -0.031141033 0.013689463 0.006454688 0.021394854
000070 51 f2 65 3c 22 03 76 bd fb e9 08 bd df b9 c3 bd
       0.0140348235 -0.06006158 -0.033426266 -0.095569365
000080 4e 0b d7 3c c1 e3 01 bd 20 d6 8a 3c f9 4e 1c 3c
       0.026250508 -0.031711344 0.016947806 0.009540313
000090 a8 46 6b 3d 7a b3 7c bd 2a 1a 33 3c d8 00 11 bd
       0.05744043 -0.0616946 0.010931531 -0.035401195
0000a0 55 2c 9f bd d9 9d 58 bd 09 c2 85 bc 64 1f 8f bd
       -0.077721275 -0.05288491 -0.016327875 -0.06988409
0000b0 7c 4d b6 3c d9 16 5d 3d ce b7 b2 bc 75 3e 93 bd
       0.022253744 0.053976867 -0.02181616 -0.07189647
0000c0 75 88 88 3b 7b 90 0f bd 86 ed 29 bd ec fa 24 bd
       0.0041666576 -0.035049897 -0.041486286 -0.04027836
0000d0 1a b6 e9 bd 91 7b 41 3c 17 1d 80 bd 86 e0 31 3b
       -0.11411686 0.011809246 -0.062555484 0.0027141883
0000e0 38 ff af bd 03 83 4a be 46 2b 6e bd 19 88 12 be
       -0.08593601 -0.1977654 -0.058146738 -0.1430973
0000f0 49 a7 57 3d 17 fb dd bc aa f2 bd bd 22 d8 b5 bd
       0.05264977 -0.027097268 -0.092748 -0.08879115
000100 29 a7 0d 3d d4 f0 24 3d e4 2e 9c 3b 1c e3 43 bc
       0.034583244 0.040268734 0.004766332 -0.011956003
000110 fb d7 59 bd 31 ec aa bc cd 53 35 bd df e2 42 bd
       -0.05318449 -0.020864578 -0.04426937 -0.047579642
000120 bb 75 9a bc a3 7f 11 bd 33 c3 98 bd 6e 62 c5 bd
       -0.018854966 -0.035522114 -0.07459106 -0.096379146
000130 b2 28 2e bd d1 4c ba bc 6b fd 78 3d 31 8a fc bc
       -0.04251928 -0.022741707 0.060788553 -0.030827614
000140 e2 31 d5 3c 1f ea 01 bd 13 08 86 3c c3 62 94 bd
       0.026024763 -0.031717416 0.016361272 -0.072454
000150 68 12 f8 bd e2 5e 81 3c 08 8b 9d bd 60 dc 08 bd
       -0.12112886 0.015792314 -0.07692534 -0.03341329
000160 70 14 e9 bd 86 2d cd 3b f9 0d db bd 52 77 08 bb
       -0.11380851 0.0062615303 -0.106960244 -0.0020823074
000170 c0 d4 1b 3d dc 08 6e 3c 03 9a 95 3d f7 e5 11 bd
       0.03804469 0.014528479 0.07304766 -0.035619702
000180 00 30 c6 3d 6e db 3f 3d 6e 78 a9 b9 3f 3d 18 bd
       0.09677124 0.046840124 -0.0003232392 -0.037167784
000190 f2 82 85 bd fa 82 59 bd 47 99 7a bc 01 81 27 bd
       -0.065191165 -0.053103425 -0.015295333 -0.040894512
0001a0 05 5a 9e 3c 94 c4 b7 bd a9 35 bc bc cc 42 6a bc
       0.019330034 -0.08973041 -0.022974806 -0.014298152
0001b0 71 e2 fe 3b c3 91 6b 3a 83 75 9e 3c a0 7f 79 3c
       0.0077784588 0.0008986259 0.019343143 0.015228182
0001c0 b8 60 b6 bc a2 f7 65 bc c8 49 fd 3a 48 9a 8b bc
       -0.022262916 -0.014036091 0.0019324357 -0.01704134
0001d0 f0 e9 fd bc a4 a9 83 bd 07 e4 8e bc 6b c2 50 bd
       -0.03099534 -0.06428841 -0.017442716 -0.05096666

fc2.weight f4 [84, 120]
000000 d2 09 76 bd b9 c7 d1 bc 96 e2 99 bd 98 31 26 bb
       -0.06006796 -0.02560793 -0.07513921 -0.002535915
000010 bf 5c 7d 3d de 0d 03 be 45 3e 05 be 6a 0e 28 3d
       0.061856028 -0.12798259 -0.13012035 0.04102937
000020 a6 eb 91 bd 7f 7c 0d be a1 6a 97 bd 60 45 c3 bd
       -0.071250245 -0.13817023 -0.07393385 -0.095347166
000030 17 a8 a4 3c 0d 7c a7 bd 4d e5 84 bd e9 b2 bd 3c
       0.020099683 -0.08177958 -0.06489048 0.0231566
000040 c1 f6 0b 3d f8 a9 79 bd 38 6b fb 3c 91 92 cc bd
       0.03417087 -0.06095311 0.030690774 -0.09988893
000050 e1 b4 7f bb 63 3f d2 bd 53 86 fd bd b6 65 73 bd
       -0.0039017724 -0.10265996 -0.12379136 -0.05942317
000060 13 40 59 bd 7c 8c af bd d8 c2 95 3c 97 77 99 3d
       -0.05303962 -0.08571717 0.018281385 0.07493513
000070 80 4a ac 3c 09 7b 60 3d 72 8f 1f bd 3e 10 26 3e
       0.021031618 0.054804835 -0.03895516 0.16217133
000080 75 fb 08 3d 78 e2 a5 3d ca 45 ee bd 5d 78 b2 bd
       0.033442933 0.08099836 -0.11634405 -0.08714364
000090 9c 1b d8 bd 71 21 ec bc 91 f8 4d bc 10 c8 c3 bd
       -0.10552141 -0.02882454 -0.01257147 -0.09559643
0000a0 94 df 08 3d 97 7c a6 3c 70 6c e9 3b a6 1c 34 3c
       0.033416346 0.020323081 0.0071235225 0.010993158
0000b0 7a c9 24 bd b1 27 b9 bd 84 94 ae bd c2 24 83 bd
       -0.040231206 -0.09040774 -0.08524421 -0.06403495
0000c0 ba f9 a9 bc 4c d7 64 bc a6 a3 0b bd 8e 1f 4d 3d
       -0.020748962 -0.013967346 -0.034091614 0.05007892
0000d0 b3 c6 b9 3d 92 fa 14 be d8 66 24 bd 7b 0c 02 be
       0.09071102 -0.1454871 -0.040137142 -0.12700073
0000e0 ff c8 c3 3d 05 45 37 bd 25 36 5a 3d 2f 4c 20 bc
       0.09559821 -0.044743557 0.053274292 -0.009783789
0000f0 3b 95 00 be cd 7f 25 bb 38 bc 1d 3d 13 f2 3c 3b
       -0.12556927 -0.0025253177 0.038509578 0.002883081
000100 ac 27 60 bd 33 00 fd bd 1f f9 de 3d 46 8d 3c 3d
       -0.054725334 -0.123535536 0.1088736 0.046033166
000110 4a ad 0b 3c 5f 53 8e 3d 66 b2 06 be e2 ea ed 3c
       0.008525202 0.069494955 -0.13153991 0.029042665
000120 09 5e af bd 8d 56 fa bc fe 7f f0 bd c5 f0 8c 3c
       -0.08562858 -0.030558849 -0.117431626 0.017204652
000130 26 ad b1 3d fb bf c2 bd d9 e0 53 3c 02 7e 6f bc
       0.086756036 -0.095092736 0.012932026 -0.014617445
000140 11 f4 9b 3c 02 49 0a 3d 05 dd 4e bd 44 2c 22 bd
       0.019037278 0.033761032 -0.05050375 -0.039592996
000150 51 09 ab bd 6b 89 74 bd b9 9a 26 bd 5c 17 ec 3c
       -0.08351386 -0.059701364 -0.0406749 0.028819732
000160 ea b2 9a bd 37 a5 d4 bd 76 bb 3e 3e 00 7d 08 3d
       -0.075536564 -0.10383075 0.18626198 0.033322334
000170 4f 2e 29 3d c9 3c 96 bd 07 eb 8d bd 2c 02 15 be
       0.04130393 -0.073358126 -0.069295935 -0.1455161
000180 e8 6b 99 bd 95 be 9e bd 32 46 aa 3a a2 0c b4 3d
       -0.074912846 -0.077511944 0.001299089 0.08791472
000190 65 b3 86 3d 39 2c 00 bd 47 c7 0c bd 54 f0 6f bd
       0.065771855 -0.031292174 -0.034369733 -0.058578804
0001a0 ec 03 4d bd 8f 1c cb bb 63 3e 4a 3d 3c 47 b6 bd
       -0.05005257 -0.006198473 0.049375903 -0.08900306
0001b0 e3 95 8a bd d8 a0 a1 bd 5f 76 d2 3a 3b 63 8e bd
       -0.0676687 -0.07892007 0.0016057006 -0.069525205
0001c0 96 41 1e 3d 3c 5b b8 bd 36 4f 9c bd 58 42 8c 3d
       0.038636766 -0.090017766 -0.07632296 0.068485916
0001d0 8b 38 96 bd b5 c2 66 bc 88 00 ee 3c 41 1f 96 3d
       -0.073350035 -0.014084508 0.029052988 0.0733018
0001e0 17 08 ca bc e5 5e a2 bd 1e 31 16 3d 44 52 1b bd
       -0.02466206 -0.07928256 0.036667936 -0.03792025
0001f0 01 4e 3b 3d 77 9b cf 3d 10 47 18 bd de bd ba bd
       0.045728687 0.101370744 -0.037177145 -0.091182455
000200 38 56 1b bd 91 14 2b be 59 a4 22 be a2 a4 c0 bd
       -0.03792402 -0.16707064 -0.15883006 -0.09406401
000210 35 64 03 3e de cb bd 3c de 19 48 bd 8f d1 ce bd
       0.12831195 0.0231685 -0.048852794 -0.10098564
000220 f9 fd 7f bd 7c ff 46 be b4 da 75 bc c1 e4 5b bc
       -0.062498067 -0.19433397 -0.015005756 -0.013421238
000230 fc ab 2a bd 46 e0 e0 3d 7f f4 58 bd 8c e3 71 3d
       -0.041667923 0.10980277 -0.052967545 0.059054896
000240 69 50 d7 bd 7b 5c 97 bc 97 2d af bc 7b e3 1b 3d
       -0.10513384 -0.018476715 -0.021384044 0.03805874
000250 27 f7 91 3d 0e 22 26 3e fe b8 63 bd a8 ee dc 3d
       0.07127219 0.16223928 -0.055596344 0.107877076
000260 80 d1 26 bc 96 87 46 3c cc 28 08 be a9 f9 6e 3d
       -0.010181785 0.012117287 -0.13296813 0.058343563
000270 9f 99 44 3e 6e 0a 9f bd 72 46 3c be 43 8d 4e bc
       0.19199227 -0.07765661 -0.18386248 -0.012606922
000280 26 8a 92 3c 86 e8 df bd 54 6c 77 3d 99 cb 02 3e
       0.01788814 -0.10933022 0.060406044 0.12772979
000290 b4 86 c3 3b 15 31 ab bd 14 34 89 3c 92 ae a5 3d
       0.0059669856 -0.08358971 0.016748466 0.08089937
0002a0 38 81 00 3c 10 09 2b 3d b2 8f f6 3d 4f 1d ce 3b
       0.007843308 0.04175669 0.120391265 0.006290115
0002b0 cc a6 7d 3d d5 79 5e be b9 35 0a be 8a 52 18 3d
       0.061926648 -0.21726163 -0.13497056 0.03718809
0002c0 7c 71 b3 be 8f 04 96 3e 4b 84 a3 bc 27 cd ec bc
       -0.3504752 0.29300353 -0.019960543 -0.028906418
0002d0 f8 30 13 be b0 99 63 3d e5 e0 2d bd e5 03 82 be
       -0.14374149 0.05556649 -0.042450804 -0.25393596
0002e0 52 ff ba bd c2 2f da 3d 18 85 0c be e9 44 83 bc
       -0.0913073 0.1065364 -0.13722646 -0.01602407
0002f0 7b fd a1 3d 25 f3 11 3d 36 e1 81 bd 80 ae 77 bd
       0.07909676 0.03563227 -0.06341784 -0.06046915
000300 14 ce 1b be 61 af 4c bd b0 ed 40 be b0 dc 9b bc
       -0.15215331 -0.04997194 -0.1884067 -0.01902613
000310 6d 15 b0 bd f1 93 31 be 69 61 99 3d 2a e0 c7 3b
       -0.08597837 -0.17341591 0.07489283 0.0060997205
000320 a6 18 ee bd 2b 00 06 bb f3 2c 5b bd cc 79 1b 3d
       -0.11625795 -0.0020446877 -0.053509664 0.03795795
000330 7b 61 65 3e 1c a7 cc bd dd d4 6e bc 8b 8d df 3c
       0.22400467 -0.09992811 -0.014577118 0.027289173
000340 2d 86 3d bd 57 70 0a 3d ad 71 ac bd 80 32 e8 bd
       -0.046270538 0.033798542 -0.084201194 -0.11337757
000350 64 42 eb bd 2c d2 56 bc 9a 71 41 3d cd de fa 3d
       -0.114872724 -0.013111632 0.04722748 0.12249527
000360 d0 bb ad 3d 80 a1 d7 bd d7 47 42 3e c0 3f 0a bc
       0.08483088 -0.105288506 0.18972717 -0.008438051
000370 96 61 cd 3d 36 73 85 3d 20 27 0a bd fe f2 85 3e
       0.10028379 0.06516115 -0.03372872 0.2616195
000380 e9 8f ff 3c f3 a6 8f 3d 18 29 bc bb ff 93 38 3d
       0.031196551 0.07014265 -0.0057422034 0.045063015
000390 1a ed b3 3d ad 73 c3 3d 3a 14 8c 3c 53 bc 11 bc
       0.08785458 0.09543548 0.017099489 -0.008894998
0003a0 1c 50 4b be 21 6b dc 3d 31 4e 9d bc d7 e1 a1 3d
       -0.19854778 0.10762621 -0.019202324 0.07904404
0003b0 3c 49 04 be f9 1f 22 3d 38 72 62 3d e5 a5 a7 3d
       -0.12918562 0.039581273 0.05528471 0.08185939
0003c0 6c 31 0c bd 8b 8f 1e 3e dd 4e d6 3c 79 25 b8 3c
       -0.03422682 0.15484445 0.026160652 0.022478806
0003d0 9f 23 e8 3c 6d b7 e6 3d 7e 1c bc 3d 79 f3 fa bb
       0.028337298 0.112654544 0.09185122 -0.0076584187
0003e0 47 70 96 bd d3 20 ec 3d a6 c6 29 be e0 d0 24 bd
       -0.07345634 0.11529698 -0.16579685 -0.04023826
0003f0 a6 3a 76 bd 02 6a 59 be e4 bd 4c 3e 6f 7c c2 3c
       -0.060114525 -0.21231845 0.19994313 0.023740975

fc2.bias f4 [84]
000000 e2 64 44 bd 9b 82 5a bd 67 fc 1b 3e 7e c5 53 bd
       -0.04794777 -0.05334721 0.15233003 -0.051702015
000010 17 c9 c6 bc 9a 50 83 bd e0 8f 9b 3d 38 31 bd bd
       -0.024265809 -0.06411858 0.07595801 -0.09237903
000020 a9 a8 a5 bd d5 3c ae bd 73 9e af 3c c4 c7 9d bd
       -0.0808881 -0.085076965 0.02143786 -0.07704118
000030 96 3b 9a 3d 4e e9 94 bd 90 e1 71 bd ed 34 96 3d
       0.07530896 -0.07271062 -0.059053004 0.073343135
000040 1b 5b 1a bd 14 84 45 3d fe e9 1e bb a6 c1 87 3c
       -0.03768454 0.048221663 -0.0024248357 0.016571831
000050 66 f2 20 be 75 87 e7 bd 96 cf a3 bb f7 fa 8f bd
       -0.15717468 -0.11305133 -0.0049991114 -0.070302896
000060 37 09 aa bd 24 63 ab 3c 88 dc ce 3d 05 9b 9e 3d
       -0.08302539 0.020921297 0.10100657 0.077444114
000070 51 9f be bd e7 6b a5 bd d9 35 37 be ce d9 9e 3d
       -0.09307731 -0.08077221 -0.17891635 0.07756387
000080 8d ab a8 bd c6 c9 2f bc 0d 76 b5 bb 21 6a 2e be
       -0.08235846 -0.010729259 -0.0055377544 -0.17032672
000090 3e 70 05 3c 11 4b bc 3c c1 77 11 bd 32 36 88 bd
       0.008144436 0.022985013 -0.035514597 -0.06650962
0000a0 b7 2e 54 3d 1e da 1b be c8 2b 23 3c 15 e8 7e 3d
       0.051802363 -0.15219924 0.009959169 0.06223305
0000b0 a3 1a 24 bd bd 15 64 3b f1 3f 99 bd dc 7b c3 3d
       -0.040064465 0.0034802996 -0.07482899 0.09545109
0000c0 4a 52 1d 3d 20 7f ec 3d 76 07 1d 3d af 87 97 bd
       0.038408555 0.11547685 0.038337193 -0.073989265
0000d0 05 2e d6 3d d0 02 01 be 8a a0 7b bd a3 a2 d8 3c
       0.10457996 -0.12598729 -0.0614324 0.026444739
0000e0 1b 93 2f bd 74 e2 14 bd ba 27 81 3e a9 06 53 3d
       -0.0428649 -0.036348775 0.2522562 0.051520023
0000f0 d5 75 23 3c 7e 89 92 bc 96 ac b3 3d 90 46 72 3d
       0.009976824 -0.017887827 0.087731525 0.059149325
000100 1d b8 ec 3b 66 d4 35 3d 97 d6 50 bd a0 66 b8 b9
       0.0072240965 0.044392012 -0.0509859 -0.00035171676
000110 77 b2 2b 3d 4b f4 60 3d f4 72 12 be e6 80 85 bd
       0.041918244 0.054920476 -0.14301664 -0.06518726
000120 1d 89 a1 3d e7 76 1f 3d 74 20 84 bd 62 8d c6 3b
       0.078874804 0.038931753 -0.064515024 0.0060593346
000130 d4 56 b8 3d e5 04 d5 bb a8 84 9f bc 6f e6 49 bd
       0.09000936 -0.0065008276 -0.019472435 -0.049292024
000140 33 0a 3f bd 4a 18 eb bc 16 11 b9 3d fe 86 0c 3d
       -0.046640586 -0.028698105 0.09036462 0.034308426

fc3.weight f4 [10, 84]
000000 fe f3 19 be 77 d0 46 bd 8c c1 b0 bd 61 59 83 be
       -0.15034482 -0.04853865 -0.08630666 -0.25654128
000010 04 f9 35 be 96 46 8c bd 62 1d 2c be 69 d0 43 be
       -0.17770773 -0.06849401 -0.16808084 -0.19122471
000020 a7 ca b9 bc df f1 ce bd 99 8d d4 be 23 72 f4 bd
       -0.02267964 -0.10104727 -0.4151428 -0.11935832
000030 14 e9 71 be 2e 57 61 be 03 eb 92 3d 21 7a a6 be
       -0.23624068 -0.22005913 0.07173731 -0.32515052
000040 30 62 0d 3e 66 67 46 be a5 42 e4 bd 17 8e f7 3d
       0.13806987 -0.19375381 -0.11145524 0.12087648
000050 37 ab de 3d fe f3 10 be 4b bb 34 be 43 bb d6 3d
       0.108725004 -0.14155576 -0.17649572 0.10484936
000060 9e d9 b0 3c e9 cd 67 be 25 fc 16 be ba 4b 7c be
       0.021588143 -0.22637142 -0.14744623 -0.24638262
000070 5b 96 2f be 59 ee c8 bc 37 e2 32 bd f9 e4 0a 3e
       -0.171472 -0.024527716 -0.043672767 0.13563909
000080 61 6b 1f bd ad b0 a7 3d dd 1e f8 3d e8 c0 3b 3d
       -0.038920764 0.08187995 0.12115262 0.045838267
000090 62 d8 af 3d 77 47 c4 bd 94 7c b3 bc da ab c2 be
       0.085861936 -0.09583943 -0.02190999 -0.38021737
0000a0 5b 75 1c be cc 14 75 be bb 15 b7 3c e4 e8 1f be
       -0.15279143 -0.23933715 0.02234923 -0.15616184
0000b0 7b e4 ee bd 50 01 76 3d 46 f1 66 bd ac 8b 85 be
       -0.11664673 0.060059845 -0.05638244 -0.26083124
0000c0 2b 44 ab be 71 c5 8c be 82 28 8e be bf 6d e1 bd
       -0.33450446 -0.27494386 -0.2776528 -0.110072605
0000d0 62 7a 91 bd 3a ac df bd ce 47 18 be c0 e6 bc bc
       -0.07103421 -0.109215215 -0.14871141 -0.023059249
0000e0 ba 58 3d be 14 3f 11 3e 15 18 bd bb 6d 98 57 be
       -0.18490878 0.14184219 -0.005770693 -0.2105424
0000f0 77 bd 39 be da 9a 23 be eb 40 16 3c 63 3b 03 3e
       -0.18138681 -0.1597704 0.009170751 0.12815623
000100 46 22 0a be b7 cd 20 3e d1 74 e9 bd de 2c 5b bd
       -0.13489637 0.15703474 -0.11399234 -0.053509586
000110 2f 10 d5 bc 7c 02 9c be 4e ea b9 3c 8f 60 6f be
       -0.026008694 -0.30470645 0.022694733 -0.23376678
000120 d8 f2 1e bd b5 fd 14 bd 5c 00 63 be 0a 71 44 be
       -0.038805813 -0.036374766 -0.22168106 -0.19183746
000130 47 c5 14 be e3 5e 97 3d c8 54 98 be 51 d6 31 3e
       -0.1452838 0.07391145 -0.29752183 0.17366911
000140 14 f8 81 bd e3 f5 26 39 24 d9 8a be 0f 5c d7 3d
       -0.06346145 0.00015922594 -0.2711879 0.10515606
000150 42 87 94 bd 1f fc e7 bd 22 e4 fa bd 42 ab ca 3d
       -0.07252361 -0.11327385 -0.12250544 0.09895946
000160 39 df 45 bc 58 ba 08 be 8e 84 19 be 3c 3c 65 bd
       -0.012077146 -0.13352334 -0.14991972 -0.055965647
000170 7e 7c 8f be f4 28 16 be 3f 86 6f 3e 18 7c 99 bc
       -0.28024668 -0.1466406 0.23391055 -0.01873593
000180 c0 38 e8 bd b1 34 44 be 59 bb e8 3c fe 7b 0d bc
       -0.11338949 -0.19160725 0.028409647 -0.008635519
000190 75 db 6d be d6 99 81 bd 0e 6f a7 bd 72 71 55 bd
       -0.23228247 -0.0632817 -0.08175479 -0.052110143
0001a0 f9 8e 2d be 19 6f 61 bd 4b 0c 48 be ff f1 1a be
       -0.16949071 -0.05503759 -0.1953594 -0.15131377
0001b0 1d 59 01 be fa 31 36 be 4e b0 36 be 91 df dd 3d
       -0.1263165 -0.17792502 -0.17840692 0.108336575
0001c0 ac f8 95 be ee 42 2c be f6 cc 12 bd 24 68 7f 3d
       -0.29291284 -0.16822407 -0.035839997 0.062355176
0001d0 62 2c 01 be 7a 46 88 be 15 6c 0d be 75 7c 45 3d
       -0.12614587 -0.2661627 -0.13810761 0.048214395
0001e0 b9 55 bc 3d fa 44 ed bd c1 50 5d 3d 94 8c 88 bd
       0.09196038 -0.11585422 0.05403209 -0.06667438
0001f0 b8 82 74 3b ed 14 9d 3d 35 c3 4b be b3 5e ea 3d
       0.003730936 0.07670007 -0.19898684 0.11443844
000200 e3 9d 03 be 20 82 93 bc e5 fd 51 3d e7 ea f2 3c
       -0.12853198 -0.018006384 0.051267523 0.029653026
000210 9b 06 c6 3c f0 03 fc 3d 21 8e 1f 3c ba e0 74 bd
       0.024173072 0.123054385 0.009738476 -0.05978463
000220 b9 61 07 3e 02 e5 8b be 6f cc 2d be f5 3c ad bc
       0.13220872 -0.27323157 -0.16972516 -0.02114723
000230 35 89 c7 bc 1c 0f 11 be 0b 7d d4 3d 46 51 8b bd
       -0.024357418 -0.1416592 0.103754126 -0.06802611
000240 a4 3e 81 3c bf 8e 87 3d 7c 3f d4 3d 1a 03 70 3d
       0.01577694 0.066190235 0.10363671 0.058596708
000250 c3 0a ed bc 6d 3b 0f be 82 10 a4 bd e2 ac 04 3e
       -0.028935796 -0.13987513 -0.08010961 0.12956575
000260 8c 7d 13 be 85 61 ec bc ed 68 91 3c fb c5 7a bb
       -0.14403361 -0.028855095 0.017750228 -0.0038264978
000270 ff 46 c6 3d 34 0a 17 3e 02 1a 78 bc 9d 83 91 be
       0.0968151 0.14749986 -0.0151429195 -0.28420725
000280 63 be 29 be d2 ba 28 be 3c e1 89 bd 38 70 88 be
       -0.16576533 -0.16477516 -0.06732413 -0.26648116
000290 74 76 6e bd 7d 69 fc bd 01 58 0b 3e de 96 2d be
       -0.058218434 -0.12324808 0.1360779 -0.16952083
0002a0 2f 7c 76 bd 7d fd 67 bd ac f3 61 3d 17 4a 77 be
       -0.060177024 -0.05663823 0.055164024 -0.24149357
0002b0 69 cc c4 3d ac ae 42 be a4 ba 7e bd 9e da 7d 3c
       0.09609301 -0.19011945 -0.062189713 0.015494017
0002c0 9e 72 2d be 58 ed 39 3d 8d 73 3d ba 27 07 6a bd
       -0.16938254 0.045392364 -0.0007226996 -0.057135727
0002d0 19 d3 7a be c7 66 08 3e 45 b7 3f 3d 39 65 4a be
       -0.2449459 0.13320456 0.04680564 -0.19765176
0002e0 3f 15 18 be ee 02 e2 3d 45 9c ad 3c 53 d7 b7 bc
       -0.14851855 0.11035715 0.02119268 -0.022441542
0002f0 b8 0a 39 3d 35 63 1d 3d dc 75 24 be aa 00 4d bd
       0.045176238 0.03842469 -0.16060585 -0.05004946
000300 c7 33 ac 3d 6d 28 01 bd 52 52 65 bd b6 c2 01 3e
       0.08408313 -0.031532694 -0.05598671 0.12671933
000310 e6 4b 83 bd e5 46 47 bd 3e 3b 24 be ac f4 7f bd
       -0.06410961 -0.048651595 -0.16038224 -0.062489197
000320 21 ed 16 be 2f 51 fe 3d ef c7 14 3e 21 0f 6f 3d
       -0.14738895 0.12417828 0.14529394 0.058364037
000330 bb 29 02 bd ca 70 8b 3d ad a8 c7 bd 8d c4 e0 bd
       -0.03177808 0.06808622 -0.09748969 -0.10974989
000340 29 fd 0c 3e c1 02 b4 be dd 7e 3a be 3d 4f 00 be
       0.13768448 -0.3515835 -0.18212457 -0.12530227
000350 8d 62 03 bd 52 fb 7f 3c 58 e6 b4 bd 89 b1 77 be
       -0.032076407 0.015623884 -0.08832997 -0.24188818
000360 9d e6 31 be 18 1e 19 be e2 d0 83 be 7e 31 f0 be
       -0.17373128 -0.14952886 -0.25745302 -0.4691276
000370 e1 79 99 bd 55 59 27 be b4 c7 92 bd 74 4c f2 bc
       -0.0749395 -0.16342671 -0.071669966 -0.029577471
000380 dd c9 64 3d 44 97 5d be 9b 1f 04 3d 0b 36 79 bd
       0.055856574 -0.21639735 0.032256704 -0.060842555
000390 03 84 d6 be 9c 78 91 3d 5a 67 0b 3e fd d6 c7 bd
       -0.41897592 0.071030825 0.13613644 -0.09757803
0003a0 5b 5b 11 3e e0 7c 2b be 5c 12 07 be 20 f8 ce 3d
       0.14195006 -0.16746855 -0.13190597 0.1010592
0003b0 40 0e cd 3d 75 13 cf bd 00 43 25 bd 5e ba 9f 3c
       0.100124836 -0.10111133 -0.0403471 0.019498046
0003c0 13 94 2f be fd 3d ba bd 0e db 26 be d7 99 b2 be
       -0.1714633 -0.090938546 -0.162945 -0.34882995
0003d0 30 6c 09 3e 46 71 b4 3d 9e 03 24 bc 5b 62 81 bd
       0.13420177 0.08810668 -0.010010628 -0.06317588
0003e0 2f fb 97 bd f0 09 74 bd ae 03 5d 3d 5c d9 3e bd
       -0.07420956 -0.05957979 0.053958587 -0.04659401
0003f0 44 1a 22 be eb 67 54 bc ac 5a 70 bb e0 d1 76 be
       -0.15830332 -0.012964229 -0.0036675138 -0.24103498

fc3.bias f4 [10]
000000 52 02 1c be 74 ae 03 3e fc 5a 95 bd 3f 1b b2 38
       -0.1523526 0.12859517 -0.072927445 8.4927764e-05
000010 10 9b 0c 3d 9e d1 90 bc d2 0b da bd a6 49 ca bd
       0.034327567 -0.017678078 -0.10646786 -0.098773286
000020 a2 7c 69 3e ac d4 a0 bd
       0.2280145 -0.07853064
