models/cnn_checkpoint.pth (torch, 451995 bytes, 10 tensors)

conv1.weight f4 [16, 1, 5, 5]
0.05618296 0.25757873 -0.08358998 0.24834771 0.28831464 0.15824476 -0.0662611 0.10003272
-0.04092771 -0.021039216 0.09472427 0.15037322 0.05908421 -0.02397013 -0.26818195 -0.20999783
-0.101775326 -0.13066822 -0.31184813 -0.33322027 -0.07071038 -0.015395383 -0.47085783 -0.052187443
-0.03570816 0.039068747 0.07671148 -0.25231162 -0.06968581 -0.014012789 0.04968911 -0.14647257
-0.060049556 0.112944655 -0.0059466134 -0.24215811 -0.06260216 -0.060712866 0.25255552 0.029756816
-0.13960826 -0.12399388 0.14448278 0.102818415 0.0008773133 -0.014043039 0.16913408 0.06809484
0.14920045 -0.07648103 -0.025251513 0.12868728 0.093877375 0.014401173 -0.01708897 0.14263481
0.1336885 -0.24558875 -0.36686262 0.061227176 -0.033588555 0.24108365 -0.23931742 -0.21349414
0.24957995 0.062484644 0.025165714 -0.011030179 0.09507753 0.08361076 -0.12153403 0.066956386
0.05703149 0.00059804425 0.030975483 0.0186737 -0.10649905 -0.29605898 -0.14000921 0.020016514
-0.058202557 -0.1881371 -0.3095479 0.11548536 0.059324943 -0.21601073 0.017063756 -0.37139907
-0.11722398 0.25041577 -0.036842715 -0.23319268 -0.32712844 0.15106466 0.24538663 -0.14621855
0.045903582 -0.18252864 -0.017018888 0.0058526266 -0.082000494 0.22059728 0.36064205 0.15240295
0.20842312 -0.20671912 -0.12792149 -0.13541028 0.15850426 0.045155097 -0.27112186 -0.43354478
-0.2579089 -0.393732 -0.32877484 0.026842441 -0.04789295 -0.32146376 -0.26615128 -0.3059566
0.045454867 -0.0487349 0.060716994 -0.026727851 0.26421505 -0.032846693 -0.032661624 -0.116522156
-0.099571064 0.2239811 -0.1029685 0.0890284 -0.33184958 0.2517683 -0.044369705 0.27111757
0.16964921 0.011462534 0.084485926 -0.15240957 0.0063210083 -0.112716995 0.11141434 0.15642042
-0.22923203 -0.2225878 -0.27262813 0.17221917 0.021349726 -0.023981333 -0.043159477 0.025421731
0.10902891 0.15664822 -0.051093824 -0.093155816 0.12820919 0.0651788 -0.0978497 -0.21151514
0.12186402 -0.03986487 0.093736224 -0.26061133 -0.24073102 0.14928372 0.057941705 -0.2271222
-0.255458 -0.22560574 0.25348583 -0.015196882 -0.081410825 -0.36439696 -0.09041457 -0.12675476
-0.11752971 0.17547125 0.15363581 0.20842646 0.1225741 0.2720946 0.29135954 0.14979495
0.27340963 -0.014925355 0.028469468 -0.08088162 -0.098564394 -0.08889653 -0.10860701 -0.09887707
-0.15860045 -0.04357906 -0.35313833 0.04561101 -0.13324663 -0.1887055 -0.31097567 -0.080594376
-0.016892252 0.06782762 0.03859438 0.0946495 0.11511913 -0.058168013 -0.1838829 -0.4930316
-0.25983763 -0.0942884 -0.07006031 0.06914274 -0.13983774 -0.3635376 -0.15898438 0.20598468
0.21202531 0.2421419 -0.098214604 -0.042429503 -0.112881504 0.012135571 0.28335136 0.23867281
0.21959981 -0.16028228 0.19425291 0.009280871 0.12705706 0.11220087 0.02609179 -0.026701486
-0.06138356 0.18048927 0.1977868 -0.2047086 -0.08670073 0.035500295 0.11279129 0.14262727
-0.19875512 -0.31343722 0.0031078106 0.031526934 0.1489248 -0.27028686 -0.30533808 0.044401
0.11893399 0.13781439 0.031275775 0.07833331 0.042115316 0.09225122 -0.07323535 0.07152564
00000000: 1a20 663d 5ce1 833e 3931 abbd dd4e 7e3e
00000010: fa9d 933e ea0a 223e e6b3 87bd f4dd cc3d
00000020: d0a3 27bd 6f5a acbc ccfe c13d 70fb 193e
00000030: 4902 723d 025d c4bc 254f 89be ac09 57be
00000040: 956f d0bd e4cd 05be 8faa 9fbe d99b aabe
00000050: 9bd0 90bd eb3c 7cbc 4714 f1be 80c2 55bd
00000060: b842 12bd 8d06 203d e91a 9d3d fd2e 81be
00000070: 6fb7 8ebd e695 65bc cf86 4b3d e8fc 15be
00000080: 86f6 75bd 874f e73d cfdb c2bb 4cf8 77be
00000090: 9035 80bd 0eae 78bd f54e 813e 91c4 f33c
000000a0: 78f5 0ebe 81f0 fdbd 4bf3 133e 7692 d23d
000000b0: 80fb 653a c614 66bc 7c31 2d3e 4f75 8b3d
000000c0: 01c8 183e 16a2 9cbd 43dc cebc 99c6 033e
000000d0: c842 c03d e6f2 6b3c 2bfe 8bbc dc0e 123e
000000e0: a3e5 083e 9e7b 7bbe 6bd5 bbbe 59c9 7a3d
000000f0: 2794 09bd a2de 763e a00f 75be 359e 5abe
00000100: e391 7f3e e6ef 7f3d 5428 ce3c edb7 34bc
00000110: 02b8 c23d 1e3c ab3d d5e6 f8bd 6e20 893d
00000120: da99 693d 12c6 1c3a 4cc0 fd3c 96f9 983c
00000130: 2d1c dabd 0b95 97be 935e 0fbe acf9 a33c
00000140: ce65 6ebd 03a7 40be 107d 9ebe 9783 ec3d
00000150: b6fe 723d eb31 5dbe 4ac9 8b3c 0528 bebe
00000160: 2013 f0bd 7f36 803e 63e8 16bd 10ca 6ebe
00000170: 617d a7be b2b0 1a3e a246 7b3e 51ba 15be
00000180: 6505 3c3d cae8 3abe 326b 8bbc 64c7 bf3b
00000190: e0ef a7bd 41e4 613e 13a6 b83e 850f 1c3e
000001a0: df6c 553e 2dae 53be dafd 02be fea8 0abe
000001b0: f14e 223e 8df4 383d 7cd0 8abe 95f9 ddbe
000001c0: a30c 84be 3e97 c9be 2d55 a8be aee4 db3c
000001d0: 662b 44bd e696 a4be fb44 88be 58a6 9cbe
000001e0: e22e 3a3d 3f9e 47bd 62b2 783d 5ef4 dabc
000001f0: 3247 873e 418a 06bd 32c8 05bd 2ba3 eebd
00000200: eaeb cbbd 4d5b 653e 26e1 d2bd 8654 b63d
00000210: 30e8 a9be c6e7 803e 02bd 35bd eccf 8a3e
00000220: 86b8 2d3e 5acd 3b3c f506 ad3d 4111 1cbe
00000230: 7620 cf3b 2bd8 e6bd 342d e43d ad2c 203e
00000240: cdbb 6abe 0eee 63be ea95 8bbe 395a 303e
00000250: 9fe5 ae3c 8074 c4bc fec7 30bd 3c41 d03c
00000260: 8d4a df3d 6468 203e c247 51bd 7ac8 bebd
00000270: 4549 033e 767c 853d 6c65 c8bd 6d97 58be
00000280: d893 f93d 5949 23bd c7f8 bf3d d96e 85be
00000290: 3182 76be d5dd 183e 4854 6d3d b992 68be
000002a0: 64cb 82be 3105 67be e5c8 813e 58fc 78bc
000002b0: b8ba a6bd 3d92 babe 462b b9bd 00cc 01be
000002c0: 6bb3 f0bd bcae 333e b552 1d3e bf6d 553e
000002d0: 2108 fb3d fc4f 8b3e 142d 953e d963 193e
000002e0: 59fc 8b3e 7a89 74bc cd38 e93c 43a5 a5bd
000002f0: 21dc c9bd 620f b6bd 5a6d debd 1080 cabd
00000300: 2868 22be f57f 32bd 8cce b4be 9cd2 3a3d
00000310: ce71 08be 043c 41be 3438 9fbe aa0e a5bd
00000320: 9f61 8abc 35e9 8a3d 2415 1e3d 99d7 c13d
00000330: 94c3 eb3d 9541 6ebd cd4b 3cbe a36e fcbe
00000340: 7009 85be 471a c1bd c87b 8fbd b59a 8d3d
00000350: a031 0fbe 9a21 babe cdcc 22be a6ed 523e
00000360: 2a1d 593e 0cf4 773e bd24 c9bd 8fca 2dbd
00000370: 6b2e e7bd 46d4 463c 6e13 913e a566 743e
00000380: c6de 603e 0a21 24be 3cea 463e cb0e 183c
00000390: 3f1b 023e 92c9 e53d 73be d53c 13bd dabc
000003a0: 546d 7bbd 2ed2 383e 9f88 4a3e 229f 51be
000003b0: 2790 b1bd c268 113d 1fff e63d e20c 123e
000003c0: 7686 4bbe d87a a0be 69ac 4b3b 6322 013d
000003d0: be7f 183e 0a63 8abe 4655 9cbe d3dd 353d
000003e0: aa93 f33d 371f 0d3e 071b 003d 376d a03d
000003f0: 1c81 2c3d 35ee bc3d 6afc 95bd 097c 923d

conv1.bias f4 [16]
-0.18143356 -0.21909878 -0.5297647 -0.20342295 -0.12624663 -0.18519926 0.056031633 -0.14251806
-0.20167714 -0.33794758 -0.32347113 -0.14456624 -0.20811689 -0.3394566 -0.21054275 -0.29461557
00000000: b8c9 39be 6e5b 60be a99e 07bf 1b4e 50be
00000010: cc46 01be e0a4 3dbe 6d81 653d 41f0 11be
00000020: 7484 4ebe 7707 adbe 029e a5be 2c09 14be
00000030: 981c 55be 41cd adbe 8598 57be dad7 96be

conv2.weight f4 [32, 16, 3, 3]
0.05286232 -0.012861843 -0.1536788 0.120253496 -0.038712546 -0.3150495 0.045839086 -0.25360057
-0.3672678 0.14635286 -0.06507449 0.03880943 -0.10673267 -0.09503731 0.13534832 -0.00091979705
0.03613743 0.13919258 -0.07648024 0.022855889 0.1386703 -0.12100103 -0.07418529 -0.032896724
-0.11258661 0.07282552 -0.112594016 -0.17341784 -0.13165824 -0.15856498 -0.17569089 -0.11899408
-0.03149697 -0.1536796 -0.027369272 0.085760616 -0.2342412 -0.1968688 -0.18397062 0.035151176
-0.132834 -0.1528142 0.10537627 -0.10577816 -0.19338502 0.04563591 -0.119343296 -0.16315293
-0.05512193 -0.15605891 -0.061416756 -0.17425056 -0.1045862 -0.053616695 -0.07106311 -0.0005750734
-0.12760684 0.07027009 0.025033688 -0.2972554 0.059160784 -0.19579746 -0.08092275 -0.058704823
0.06963416 -0.08119112 0.0024690197 0.028668534 -0.2592453 0.0980173 -0.27819455 -0.19432457
-0.16448475 -0.16288148 -0.16447474 -0.1195642 -0.029055635 -0.04027421 -0.031451765 0.083214276
0.009166319 0.077670015 -0.20768152 0.14137453 0.08059588 -0.13461074 0.02143779 -0.097828455
0.031190764 0.08508139 -0.03926022 0.09708019 -0.044863626 -0.056991145 0.036623184 -0.32610887
0.014994758 -0.19153716 -0.01104221 -0.18815324 -0.301555 -0.31739175 -0.08608468 -0.09000604
-0.1277701 -0.04523535 0.010823465 -0.06093504 0.002323322 -0.09102512 -0.22612064 -0.022662576
-0.29199615 -0.09859827 -0.14134644 0.0490085 0.073300734 -0.097901106 0.010130873 -0.014489286
-0.2046522 -0.10185012 0.016043471 -0.07759942 0.03165985 -0.04802426 -0.04195006 -0.13852224
-0.16757433 -0.17758793 -0.056911852 -0.035626046 -0.08373011 -0.110000454 0.00598112 0.0045651477
-0.13416658 -0.25950596 -0.14405261 -0.14876816 -0.19751972 -0.106110536 -0.068896085 -0.02216222
-0.050210744 -0.027610004 -0.21938558 0.026632305 -0.06783584 -0.47717977 -0.19169153 -0.39338443
-0.19036885 -0.11970253 -0.35059172 -0.0032047275 -0.3942272 -0.022202402 0.07889139 0.084854215
0.24299982 0.15650341 -0.029430214 0.01843862 0.059621956 -0.060636885 -0.09579408 0.044674564
0.076077335 0.020126738 -0.18661138 -0.052926783 -0.14207403 -0.07370523 -0.09615623 0.078418955
0.072701804 -0.024571799 0.07039124 -0.066636585 -0.08691162 -0.069469005 0.07456697 0.034483857
0.13184382 -0.15903623 0.11445961 -0.31799337 -0.3793592 0.026868789 -0.11086709 -0.08321757
0.14933474 -0.06578373 -0.0381323 -0.25126168 -0.072907194 -0.113400325 0.09241999 0.18244481
-0.21750648 0.11944255 -0.019823281 -0.14849488 0.22395667 -0.40247822 0.1962581 -0.16332124
-0.09630624 -0.30430984 0.08080168 -0.0872495 -0.38364345 -0.048574485 -0.46802595 -0.09167651
-0.007894588 -0.2211817 0.044344928 -0.17137255 0.002667523 0.10884541 -0.019495418 0.06317591
-0.011467833 0.088542745 -0.21986559 -0.16901705 -0.34145027 0.0441056 -0.010586387 0.064609416
0.22261782 0.11910039 0.05730956 0.018066559 -0.20897476 0.07047136 0.04652056 -0.284361
0.034293264 -0.17960966 0.013422034 -0.21299797 -0.22491506 -0.18251371 -0.05359126 0.049423452
0.07469323 -0.11634859 0.08241039 -0.12123867 -0.07129027 -0.14595154 -0.15227611 -0.039126333
00000000: 2986 583d 7bba 52bc fa5d 1dbe 7747 f63d
00000010: 0c91 1ebd 2b4e a1be c4c1 3b3d efd7 81be
00000020: 860a bcbe 86dd 153e c645 85bd a3f6 1e3d
00000030: a896 dabd eca2 c2bd c098 0a3e 891e 71ba
00000040: d804 143d 8088 0e3e aca1 9cbd 463c bb3c
00000050: 96ff 0d3e 63cf f7bd 75ee 97bd b7be 06bd
00000060: cf93 e6bd 8c25 953d b197 e6bd 7294 31be
00000070: 6bd1 06be dc5e 22be 50e8 33be 2bb3 f3bd
00000080: f802 01bd 2f5e 1dbe 8635 e0bc 43a3 af3d
00000090: eddc 6fbe fa97 49be cb62 3cbe aefa 0f3d
000000a0: a305 08be 537b 1cbe 84cf d73d 38a2 d8bd
000000b0: b906 46be b8ec 3a3d 426a f4bd 9011 27be
000000c0: 88c7 61bd e8cd 1fbe 2390 7bbd bd6e 32be
000000d0: 4a31 d6bd 2e9d 5bbd 8989 91bd 86c0 16ba
000000e0: 5eab 02be c4e9 8f3d 7313 cd3c dc31 98be
000000f0: 9452 723d 217f 48be d4ba a5bd 7874 70bd
00000100: 5b9c 8e3d 8847 a6bd 47cf 213b 46da ea3c
00000110: cdbb 84be 4bbd c83d 846f 8ebe 05fd 46be
00000120: b16e 28be 67ca 26be 116c 28be 13de f4bd
00000130: 1506 eebc 92f6 24bd 91d3 00bd 3f6c aa3d
00000140: 542e 163c 7511 9f3d 77aa 54be 7cc4 103e
00000150: 740f a53d 66d7 09be 4e9e af3c 495a c8bd
00000160: c683 ff3c 273f ae3d 53cf 20bd fbd1 c63d
00000170: ecc2 37bd 8c6f 69bd 3102 163d bef7 a6be
00000180: 93ac 753c 5122 44be 63ea 34bc 3eab 40be
00000190: 6b65 9abe 2c81 a2be 2a4d b0bd 1655 b8bd
000001a0: 2ad6 02be b448 39bd e754 313c 0597 79bd
000001b0: e042 183b 616b babd 2b8c 67be dea6 b9bc
000001c0: 8580 95be e4ed c9bd 1fbd 10be 23bd 483d
000001d0: b21e 963d 6080 c8bd f6fb 253c 7864 6dbc
000001e0: 5990 51be cc96 d0bd 996d 833c 72ec 9ebd
000001f0: c2ad 013d 16b5 44bd d3d3 2bbd c6d8 0dbe
00000200: 9b98 2bbe 9cd9 35be 671c 69bd 9eec 11bd
00000210: b17a abbd eb47 e1bd 45fd c33b 3c97 953b
00000220: f762 09be f7dd 84be 8782 13be ae56 18be
00000230: 9c42 4abe 7b50 d9bd 6419 8dbd 8b8d b5bc
00000240: c8a9 4dbd 602e e2bc 9da6 60be fe2b da3c
00000250: 84ed 8abd e850 f4be c94a 44be af69 c9be
00000260: 0df0 42be 9a26 f5bd c280 b3be 6806 52bb
00000270: 26d8 c9be d0e1 b5bc cf91 a13d 0cc8 ad3d
00000280: f2d4 783e 6e42 203e a217 f1bc 970c 973c
00000290: 2736 743d 625e 78bd b02f c4bd adfc 363d
000002a0: 6fce 9b3d d4e0 a43c 0e17 3fbe c1c9 58bd
000002b0: db7b 11be c5f2 96bd 8fed c4bd 1e9a a03d
000002c0: afe4 943d cc4a c9bc 4829 903d c378 88bd
000002d0: b8fe b1bd c445 8ebd 91b6 983d f23e 0d3d
000002e0: 1102 073e 65da 22be cd69 ea3d 07d0 a2be
000002f0: 5e3b c2be ef1b dc3c 490e e3bd f96d aabd
00000300: 35eb 183e 9fb9 86bd 9d30 1cbd 5fa5 80be
00000310: 5e50 95bd 6e3e e8bd b146 bd3d d0d2 3a3e
00000320: 05ba 5ebe 4c9e f43d 6f64 a2bc 0b0f 18be
00000330: e654 653e a011 cebe e2f7 483e af3d 27be
00000340: 353c c5bd 80ce 9bbe 5a7b a53d deaf b2bd
00000350: ea6c c4be 0af6 46bd 19a1 efbe e5c0 bbbd
00000360: 4d58 01bc 757d 62be 07a3 353d 497c 2fbe
00000370: 9cd1 2e3b 58ea de3d dbb4 9fbc 5f62 813d
00000380: 94e3 3bbc e655 b53d 7224 61be ce12 2dbe
00000390: 92d2 aebe 13a8 343d 8672 2dbc f151 843d
000003a0: edf5 633e e8ea f33d 6ebd 6a3d 5200 943c
000003b0: 7bfd 55be 4a53 903d 588c 3e3d c497 91be
000003c0: 1877 0c3d 98eb 37be 17e8 5b3c 241c 5abe
000003d0: 2250 66be e0e4 3abe 8282 5bbd 3f70 4a3d
000003e0: c4f8 983d 2b48 eebd c7c6 a83d fb4b f8bd
000003f0: a200 92bd 5274 15be 45ee 1bbe ef42 20bd

conv2.bias f4 [32]
-0.20680074 -0.06375631 -0.088853866 0.028826326 -0.07752005 -0.011267446 0.00035253595 -0.08793642
0.048435964 -0.1088437 -0.011543685 -0.023276897 -0.035755005 -0.041210838 0.107142106 0.04992101
-0.009925897 -0.12745157 0.042223066 -0.09757151 -0.056389265 -0.19779359 0.05900676 0.017419236
-0.10209892 -0.16781808 -0.015138186 -0.023159925 -0.03264858 0.018606648 -0.009405669 -0.002529333
00000000: 93c3 53be ab92 82bd 04f9 b5bd 3025 ec3c
00000010: d5c2 9ebd 189b 38bc 93d4 b839 0318 b4bd
00000020: ca64 463d 72e9 debd b921 3dbc 31af bebc
00000030: d773 12bd b2cc 28bd 526d db3d f979 4c3d
00000040: 3ba0 22bc aa82 02be 18f2 2c3d 92d3 c7bd
00000050: 6ef8 66bd 678a 4abe 13b1 713d c9b2 8e3c
00000060: 3d19 d1bd 81d8 2bbe 2706 78bc e2b9 bdbc
00000070: 84ba 05bd f86c 983c 3c1a 1abc 2bc3 25bb

fc1.weight f4 [120, 800]
-0.016918479 -0.033575464 0.01645208 -0.0044724345 -0.025800731 0.007449874 -0.07990502 0.018084928
-0.13250843 -0.005644247 0.027170798 -0.07735269 0.022634465 4.746153e-05 -0.047167297 -0.080518454
-0.035591282 0.09007559 0.012284422 0.17962548 0.067768335 0.12802815 0.14167681 0.07756298
0.008127712 -0.034556936 0.0528984 -0.07348932 -0.08928822 -0.15371302 0.046050705 -0.079362124
-0.061459493 -0.107948236 -0.11826564 -0.15643492 0.025785794 -0.04053737 0.10409152 -0.13393007
-0.08194334 0.0116570825 0.08553639 0.19559434 0.13531376 0.033138234 0.12149967 0.084274955
-0.09325434 0.023523597 0.06792707 -0.057857152 -0.13825871 0.011361696 0.0139272595 0.10195932
0.1313517 0.051917624 -0.115637966 0.15426974 0.076351665 -0.013793829 0.041954607 -0.037727628
0.001988848 -0.21071579 -0.081223145 -0.18748422 -0.24508317 0.09592402 -0.12319758 0.09706329
0.077625036 -0.23062381 0.005836766 0.09194245 0.035425358 0.11003528 0.09529118 0.063928805
-0.03879443 -0.01715056 0.046935637 0.086230434 -0.29340762 0.16833316 0.19750677 0.09323358
-0.23626125 -0.08123865 -0.032380823 0.1309966 0.052811068 -0.04859377 -0.20137413 -0.32371634
-0.28036928 -0.22969635 -0.1117061 -0.09438041 -0.05387123 -0.119241096 -0.14713073 -0.20214441
0.04129856 0.024910256 -0.111782245 -0.058611624 -0.049261365 0.19720772 -0.013464469 -0.04013676
0.08929717 -0.0806292 0.115132384 -0.041339073 -0.066426516 -0.22817126 -0.10890333 -0.0026001693
0.034454558 0.05852775 0.073602766 0.091273956 0.10934419 0.077398084 0.19198057 0.070501074
0.097075954 0.116336465 0.095323235 0.12972158 -0.027614053 -0.06009198 0.0040242868 -0.15495117
0.111941 -0.08064158 -0.17007376 -0.05749387 -0.02630128 0.021136533 -0.015136444 -0.31307214
-0.18876714 -0.23323053 -0.1273641 -0.16899459 -0.07054906 -0.21918315 0.06522068 -0.025665868
-0.032220773 0.027393647 -0.063100696 0.115944065 -0.03874114 0.079515636 0.015204881 -0.046401456
-0.03264238 -0.13475107 0.05577826 -0.14971577 -0.02579176 -0.030718703 0.05349351 0.1131482
0.07431275 4.178739e-05 0.16839637 0.23244521 0.050028294 -0.14784071 -0.23171115 -0.042922694
0.018342433 -0.01378173 0.005590675 -0.080484085 0.15061276 -0.078472875 0.10241582 0.13155642
-0.03178574 -0.49923283 -0.054648075 0.084936075 0.09529096 -0.35016158 0.002733531 -0.025547685
-0.0013521935 0.08225774 -0.35135478 0.05110965 0.00022603817 -0.1843483 -0.16585492 -0.17569843
0.02384507 -0.035777684 -0.048290584 -0.025687981 -0.02684764 0.01921231 0.036488704 0.017959977
0.06335031 0.039412305 0.06323705 0.061853897 -0.029918017 0.080919 0.017373567 0.0018889226
-0.002738063 -0.03242804 0.022343682 0.07003072 -0.0051345914 -0.03967404 -0.013974664 -0.04479882
-0.017100124 -0.013608756 0.107667275 -0.017178418 0.10939023 -0.16362274 0.21195684 -0.096893035
0.09255973 -0.03552893 -0.031067844 0.08116969 0.062185254 -0.020094765 0.03211467 -0.10827301
-0.009357191 -0.123478875 -0.26044 -0.1369801 -0.16377315 0.021803774 -0.30334657 -0.09045997
0.054115504 -0.06267885 0.0042369156 0.02666083 -0.09896592 -0.1608683 -0.00071209297 0.08680661
00000000: 9f98 8abc 6d86 09bd 83c6 863c 808d 92bb
00000010: 0e5c d3bc 131e f43b 3ea5 a3bd d826 943c
00000020: 4ab0 07be 60f3 b8bb 4b95 de3c 166b 9ebd
00000030: ea6b b93c 6e11 4738 7f32 41bd dce6 a4bd
00000040: 2ac8 11bd 8d79 b83d 9a44 493c beef 373e
00000050: 20ca 8a3d d019 033e ba13 113e 57d9 9e3d
00000060: 182a 053c 938b 0dbd feab 583d 9281 96bd
00000070: bedc b6bd f266 1dbe aa9f 3c3d 9c88 a2bd
00000080: f3bc 7bbd f713 ddbd 4235 f2bd 7a30 20be
00000090: bb3c d33c 830a 26bd ef2d d53d f724 09be
000000a0: e9d1 a7bd 59fd 3e3c b42d af3d e249 483e
000000b0: b18f 0a3e f5bb 073d d2d4 f83d 5998 ac3d
000000c0: 22fc bebd 8fb4 c03c 591d 8b3d 9ffb 6cbd
000000d0: b193 0dbe 6826 3a3c 292f 643c 0cd0 d03d
000000e0: 0f81 063e 93a7 543d 99d3 ecbd e3f8 1d3e
000000f0: 435e 9c3d 83ff 61bc 98d8 2b3d 4988 1abd
00000100: 5557 023b e1c5 57be 5258 a6bd ddfb 3fbe
00000110: 15f7 7abe d073 c43d 034f fcbd 1ec9 c63d
00000120: e0f9 9e3d a628 6cbe 5842 bf3b 534c bc3d
00000130: 2e1a 113d 2d5a e13d 0628 c33d 1bed 823d
00000140: e9e6 1ebd 557f 8cbc 953f 403d 9599 b03d
00000150: 8639 96be 875f 2c3e 373f 4a3e 3ff1 be3d
00000160: 78ee 71be 7360 a6bd c1a1 04bd f923 063e
00000170: 6b50 583d 430a 47bd 0535 4ebe 26be a5be
00000180: 908c 8fbe 8535 6bbe 2bc6 e4bd 844a c1bd
00000190: 14a8 5cbd ad34 f4bd 70a9 16be f2fe 4ebe
000001a0: ae28 293d 9810 cc3c 17ee e4bd be12 70bd
000001b0: 49c6 49bd d2f0 493e 149a 5cbc 7166 24bd
000001c0: 6fe1 b63d ec20 a5bd 87ca eb3d 2953 29bd
000001d0: a00a 88bd baa5 69be b608 dfbd 9a67 2abb
000001e0: 3920 0d3d cbba 6f3d 0cbd 963d d7ed ba3d
000001f0: d9ef df3d e382 9e3d 8e96 443e de62 903d
00000200: c2cf c63d d041 ee3d d438 c33d bcd5 043e
00000210: de36 e2bc 0223 76bd 2ade 833b 85ab 1ebe
00000220: 5341 e53d 6a27 a5bd d127 2ebe b17e 6bbd
00000230: c875 d7bc 8626 ad3c d9fe 77bc fe4a a0be
00000240: 2c4c 41be fcd3 6ebe bc6b 02be eb0c 2dbe
00000250: 077c 90bd 8c71 60be 6b92 853d 3a41 d2bc
00000260: eef9 03bd a468 e03c f03a 81bd 1574 ed3d
00000270: 08af 1ebd 18d9 a23d e51d 793c 740f 3ebd
00000280: 04b4 05bd 2ffc 09be bf77 643d 174f 19be
00000290: 3e49 d3bc caa5 fbbc 031c 5b3d 3eba e73d
000002a0: 4831 983d de44 2f38 1970 2c3e 1e06 6e3e
000002b0: 78ea 4c3d 8e63 17be b045 6dbe b5cf 2fbd
000002c0: df42 963c c4cc 61bc fb31 b73b d7d4 a4bd
000002d0: 3b3a 1a3e 63b6 a0bd 63bf d13d bab6 063e
000002e0: c431 02bd 729b ffbe a9d6 5fbd f7f2 ad3d
000002f0: e827 c33d 6148 b3be 0a25 333b 6149 d1bc
00000300: 163c b1ba bf76 a83d c6e4 b3be 5a58 513d
00000310: a904 6d39 cdc5 3cbe dfd5 29be 4aea 33be
00000320: bc56 c33c 9f8b 12bd 59cc 45bd 9a6f d2bc
00000330: 95ef dbbc 2263 9d3c 2e75 153d cd20 933c
00000340: cfbd 813d cc6e 213d 6d82 813d 835a 7d3d
00000350: a116 f5bc dcb8 a53d 0353 8e3c ba95 f73a
00000360: 1371 33bb 44d3 04bd 190a b73c 446c 8f3d
00000370: 1340 a8bb 3f81 22bd fdf5 64bc f87e 37bd
00000380: 8f15 8cbc 42f7 5ebc a980 dc3d c1b9 8cbc
00000390: fc07 e03d b88c 27be 370b 593e db6f c6bd
000003a0: f58f bd3d c986 11bd fe81 febc 4b3c a63d
000003b0: f7b5 7e3d c79d a4bc ac8a 033d 3dbe ddbd
000003c0: e74e 19bc 7ee2 fcbd 6458 85be 8344 0cbe
000003d0: 26b4 27be d49d b23c 3e50 9bbe 1443 b9bd
000003e0: 38a8 5d3d c55d 80bd d3d5 8a3b d067 da3c
000003f0: a5ae cabd a9ba 24be c0ab 3aba aac7 b13d

fc1.bias f4 [120]
-0.014698207 -0.15170418 -0.10534438 -0.014944862 -0.081668876 -0.04354767 -0.023064552 -0.0434721
-0.049716875 -0.07143845 -0.058845345 0.045022093 0.0056166598 0.0031566722 -0.01220787 0.01017272
-0.061554983 0.014980216 -0.14331514 -0.021051874 0.009572608 -0.042505056 0.0034865113 -0.037603147
-0.095987655 0.031169394 0.02233503 0.021061053 0.019520368 -0.07906271 0.05019694 -0.012046001
0.05865834 -0.12765145 0.0010776524 -0.04539974 -0.012679319 -0.008030943 -0.013626393 -0.059684377
0.046869963 -0.11461827 -0.0037360871 -0.060188655 -0.037993606 -0.0056235786 -0.07099818 -0.04773389
-0.037457243 -0.15738845 -0.097778074 -0.10581544 -0.013109993 0.012511661 -0.03954711 -0.003939307
0.031763434 -0.087142795 -0.15917066 0.018318823 -0.03799341 -0.035322506 -0.052552845 -0.014084
0.008691465 0.05079333 -0.021463284 0.026345478 0.047004294 -0.013127852 -0.06970081 0.0371379
-0.01045663 -0.10023195 0.07828313 -0.005949425 -0.05802558 -0.11931102 0.0047870087 -0.0228178
-0.1425356 -0.043179158 -0.026770204 -0.11427513 -0.025301093 -0.040148966 0.013533808 -0.010575913
-0.057789523 0.08677447 -0.030218596 0.012445965 0.03135966 0.09535534 -0.03601909 -0.07316718
-0.14255232 -0.025917424 -0.007819969 0.010742454 -0.0971956 -0.03027693 0.086054854 -0.0432429
-0.0025796026 -0.117134504 0.014249113 -0.06275511 -0.06349416 0.104797095 0.0017783646 -0.104652524
-0.037967492 0.017795553 0.011771275 -0.010025163 -0.07167082 0.012877243 -0.026572006 -0.1031371
00000000: c0d0 70bc 5758 1bbe cbbe d7bd 4bdb 74bc
00000010: 0342 a7bd 0b5f 32bd dff1 bcbc cd0f 32bd
00000020: eca3 4bbd 524e 92bd d107 71bd 1669 383d
00000030: f50b b83b 2ce0 4e3b 8503 48bc 7bab 263c
00000040: 1421 7cbd 946f 753c 34c1 12be fb74 acbc
00000050: 6ed6 1c3c c819 2ebd f47d 643b c205 1abd
00000060: 2d95 c4bd f556 ff3c f4f7 b63c 3b88 ac3c
00000070: 2ee9 9f3c a1eb a1bd 4e9b 4d3d 975c 45bc
00000080: ba43 703d 10b7 02be 0440 8d3a 14f5 39bd
00000090: ebbc 4fbc 3794 03bc 3c41 5fbc 9b77 74bd
000000a0: b8fa 3f3d fcbc eabd 24d9 74bb 6188 76bd
000000b0: 2f9f 1bbd ff45 b8bb 7e67 91bd 9d84 43bd
000000c0: c46c 19bd 702a 21be df3f c8bd c4b5 d8bd
000000d0: 4ccb 56bc b6fd 4c3c 27fc 21bd 4d15 81bb
000000e0: 601a 023d ec77 b2bd a2fd 22be 5b11 963c
000000f0: fa9e 1bbd 55ae 10bd a741 57bd 94c0 66bc
00000100: a566 0e3c ab0c 503d c5d3 afbc 79d2 d73c
00000110: 9387 403d 3416 57bc 4cbf 8ebd e91d 183d
00000120: 4952 2bbc 6946 cdbd e852 a03d 65f3 c2bb
00000130: 3bac 6dbd 5659 f4bd 57dc 9c3b 65ec babc
00000140: daf4 11be a1dc 30bd 304d dbbc 1409 eabd
00000150: 3d44 cfbc 3e73 24bd e8bc 5d3c 9846 2dbc
00000160: b5b4 6cbd d0b6 b13d fd8c f7bc 29ea 4b3c
00000170: fd72 003d a949 c33d c188 13bd add8 95bd
00000180: 3cf9 11be c750 d4bc 541f 00bc 1e01 303c
00000190: 7d0e c7bd 5307 f8bc 873d b03d 781f 31bd
000001a0: 8d0e 29bb 37e4 efbd 1d75 693c c085 80bd
000001b0: 3a09 82bd dc9f d63d 0418 e93a 1054 d6bd
000001c0: cd83 1bbd fbc7 913c 4edc 403c 9540 24bc
000001d0: 27c8 92bd 12fb 523c 89ad d9bc 8b39 d3bd

fc2.weight f4 [84, 120]
-0.0039506415 0.031725112 0.14223398 0.018324569 -0.003589862 0.07045907 0.03360822 0.07774973
0.020974373 -0.052784033 0.123363525 -0.1774057 0.011642708 0.16617699 -0.286905 -0.022733985
-0.059220728 0.01728272 -0.10648616 -0.06789787 -0.21232958 -0.046678916 0.07100433 -0.024149884
0.037781224 0.034760617 0.091308124 0.1641452 0.120488726 0.11112812 0.045837875 0.044987783
-0.020258965 0.039425705 -0.031356264 0.04218181 -0.085605815 -0.20641528 -0.039766543 0.016545296
0.097486466 -0.22572325 -0.10656477 -0.13430123 0.16790248 0.07293108 -0.009948745 0.22238675
0.123625144 -0.013568023 0.11075407 0.027642595 -0.052286346 0.008439394 -0.0031822403 -0.1943362
-0.091083854 0.110605754 0.0036136652 0.11083851 -0.0017347675 -0.037319366 0.053309735 0.0014698766
0.011769318 0.13131018 -0.111958385 0.04386411 -0.05027838 -0.12080264 -0.2702965 -0.18689544
0.1199353 -0.149264 -0.105212264 -0.045479372 -0.05972069 -0.04577358 -0.017394237 0.025910702
-0.037222475 -0.022730255 -0.033186726 0.14652497 -0.039853144 -0.15971763 -0.07853179 0.11100917
0.014796845 -0.17842141 -0.18924282 0.0322175 0.022941759 -0.12087877 0.07727334 0.0047356146
-0.032870077 0.04369427 -0.18717812 0.1405983 -0.18546331 0.060925096 0.07390035 0.033902023
-0.17932211 -0.09457794 0.20970494 0.12171975 -0.03797559 0.055415425 -0.05460652 -0.12890041
-0.20779619 -0.013716139 -0.043819204 -0.27365685 -0.03706853 -0.07762149 0.073958956 -0.12059305
0.0032584886 0.019297553 -0.17477347 -0.027304582 -0.15106222 0.052194387 -0.17317869 0.01821969
-0.03936986 -0.08857584 0.07953618 -0.11256547 0.04626271 0.021732887 -0.08727985 -0.057490017
0.14416607 -0.0694686 0.036846314 0.037865084 -0.13853979 -0.044615224 0.032109495 0.16798289
0.13376355 -0.018781066 9.086079e-05 -0.16516162 0.0271577 0.015527642 0.02714018 -0.08941727
-0.17237426 0.050638627 -0.039284762 -0.016308773 -0.053283803 0.17962189 0.10284203 0.02050391
-0.12457297 0.00471444 0.24200077 -0.0828357 0.033754297 0.09783419 0.017113507 0.057618346
0.13210261 0.024517829 0.035322223 -0.085257076 -0.053245343 0.08018266 -0.08704067 -0.06017118
0.07422366 0.086041845 -0.010034622 0.042304534 0.05625434 0.021555617 -0.082376376 0.07432957
0.012344534 0.1270788 -0.27278554 -0.031477973 0.07202527 0.12035908 0.14665642 0.31821164
-0.082360476 0.11384152 0.19584055 0.27161622 -0.038960386 0.07610906 -0.017007062 -0.06669795
-0.05971108 0.032412983 0.04055521 -0.09474738 0.05791379 0.038262624 -0.009253433 -0.045040324
-0.017919885 0.23410913 -0.066142514 -0.060380265 0.051657956 0.013281773 -0.07357815 0.027893178
0.00560729 0.0057070577 0.123914145 -0.13591957 0.07288954 0.026993869 0.06265729 -0.12880749
-0.009938682 -0.038188662 -0.09512195 -0.07404396 -0.062182058 -0.041392434 -0.0036675944 0.066902496
0.17612107 -0.08427957 -0.107922345 -0.052967627 0.15857561 0.09038836 0.016686669 -0.03232761
-0.052678335 0.14582153 0.057226922 -0.0158045 0.13570404 0.0038595195 0.12737381 -0.06975064
-0.028185025 0.08512432 -0.075482056 0.020652277 -0.08270433 0.17517374 -0.12271487 -0.013775088
00000000: 6274 81bb 31f2 013d c9a5 113e 681d 963c
00000010: e443 6bbb d84c 903d c6a8 093d 403b 9f3d
00000020: 73d2 ab3c 1234 58bd 04a6 fc3d d7a9 35be
00000030: 0fc1 3e3c 4d2a 2a3e 36e5 92be 9f3c babc
00000040: 6f91 72bd 7e94 8d3c 6a15 dabd 0a0e 8bbd
00000050: ed6c 59be 6432 3fbd b86a 913d fad5 c5bc
00000060: 7cc0 1a3d 2661 0e3d c1ff ba3d ae15 283e
00000070: cbc2 f63d 2497 e33d 7fc0 3b3d 1c45 383d
00000080: 21f6 a5bc d97c 213d 6d6f 00bd d5c6 2c3d
00000090: 1a52 afbd 875e 53be 3ee2 22bd 008a 873c
000000a0: fca6 c73d ff23 67be a13e dabd 4386 09be
000000b0: a1ee 2b3e e45c 953d 1000 23bc 5ab9 633e
000000c0: 2e2f fd3d 6a4c 5ebc 08d3 e23d b972 e23c
000000d0: 352a 56bd 6245 0a3c 228d 50bb 1200 47be
000000e0: 2c8a babd 4585 e23d 3ed3 6c3b 4dff e23d
000000f0: 2361 e3ba 31dc 18bd 4f5b 5a3d e0a8 c03a
00000100: 19d4 403c 2d76 063e 704a e5bd daaa 333d
00000110: b4f0 4dbd 6067 f7bd 4e64 8abe 8561 3fbe
00000120: a3a0 f53d a9d8 18be 8779 d7bd 9448 3abd
00000130: af9d 74bd 147d 3bbd 5c7e 8ebc ae42 d43c
00000140: 9876 18bd cd34 babc ceee 07bd a40a 163e
00000150: 0d3d 23bd 058d 23be 46d5 a0bd c758 e33d
00000160: 776e 723c 1ab4 36be dfc8 41be 7ff6 033d
00000170: 5bf0 bb3c 4a8f f7bd 7c41 9e3d 372d 9b3b
00000180: c6a2 06bd c3f8 323d 9fab 3fbe 00f9 0f3e
00000190: 18ea 3dbe 988c 793d 1159 973d d9dc 0a3d
000001a0: 37a0 37be 14b2 c1bd e4bc 563e 3448 f93d
000001b0: 4b8c 1bbd 49fb 623d 16ab 5fbd 78fe 03be
000001c0: 86c8 54be a8b9 60bc c47b 33bd c01c 8cbe
000001d0: 2cd5 17bd 04f8 9ebd cb77 973d 7df9 f6bd
000001e0: 5e8c 553b e715 9e3c d1f7 32be dcad dfbc
000001f0: 0eb0 1abe c8c9 553d c155 31be 7641 953c
00000200: 4a42 21bd 4067 b5bd dde3 a23d ba88 e6bd
00000210: f87d 3d3d 2b09 b23c c7bf b2bd a77a 6bbd
00000220: 45a0 133e 8e45 8ebd 29ec 163d 6b18 1b3d
00000230: 60dd 0dbe 74be 36bd 3f85 033d b503 2c3e
00000240: 50f9 083e c0da 99bc 848c be38 2120 29be
00000250: d379 de3c a767 7e3c 1555 de3c 6720 b7bd
00000260: e182 30be 736a 4f3d 0fe9 20bd fa99 85bc
00000270: 1e40 5abd cdee 373e d89e d23d d1f7 a73c
00000280: 1d20 ffbd 977b 9a3b 0dcf 773e c3a5 a9bd
00000290: f241 0a3d 4b5d c83d a031 8c3c 3701 6c3d
000002a0: e845 073e 9dd9 c83c 09ae 103d 439b aebd
000002b0: ca17 5abd ce36 a43d 6142 b2bd 0e76 76bd
000002c0: 9302 983d b536 b03d 4168 24bc 8547 2d3d
000002d0: f36a 663d 6895 b03c f2b4 a8bd 1a3a 983d
000002e0: ba40 4a3c f220 023e 8caa 8bbe 0cef 00bd
000002f0: fc81 933d d27e f63d 1a2d 163e a3ec a23e
00000300: 9cac a8bd be25 e93d 6d8a 483e 4811 8b3e
00000310: ed94 1fbd 11df 9b3d 6552 8bbc ef98 88bd
00000320: 9b93 74bd 7ac3 043d 381d 263d ea0a c2bd
00000330: 0337 6d3d 45b9 1c3d b69b 17bc 347c 38bd
00000340: b9cc 92bc 4eba 6f3e ba75 87bd 4c51 77bd
00000350: 4b97 533d cb9b 593c 24b0 96bd 3c80 e43c
00000360: 5cbd b73b 4502 bb3b b3c6 fd3d 802e 0bbe
00000370: 1c47 953d 3f22 dd3c 7752 803d 1ce6 03be
00000380: dbd5 22bc b76b 1cbd 4ccf c2bd 5ca4 97bd
00000390: 9db2 7ebd 1d8b 29bd 065c 70bb 2d04 893d
000003a0: 1559 343e c49a acbd 6406 ddbd 95f4 58bd
000003b0: a561 223e 881d b93d 7bb2 883c f569 04bd
000003c0: 3dc5 57bd 3d52 153e c766 6a3d 7078 81bc
000003d0: 00f6 0a3e feef 7c3b 486e 023e 6cd9 8ebd
000003e0: 48e4 e6bc a955 ae3d 5696 9abd f72e a93c
000003f0: e360 a9bd bf60 333e ef51 fbbd e8b0 61bc

fc2.bias f4 [84]
0.087550126 -0.00055859046 -0.017975021 0.06428983 0.04686269 -0.07678208 -0.07598728 -0.061593886
-0.10434495 -0.052704874 -0.1417243 0.08928462 -0.041312262 -0.10059674 -0.16923186 0.0027796507
-0.099025615 0.08801065 0.09695929 0.07468137 -0.058282048 -0.058433354 -0.031830605 0.02827219
0.05193482 -0.10680103 0.0025349413 0.04060625 -0.12200177 0.0046871253 -0.053514943 -0.18824427
-0.04819974 0.07661143 -0.10578031 0.0721293 -0.16341886 -0.030022444 -0.012214337 -0.07238134
-0.019535067 -0.08096337 0.069326945 -0.057066586 0.033135187 -0.04821002 0.01950287 0.18525985
0.062033076 -0.046866223 0.102646545 -0.13875864 0.006652648 0.052951846 0.12850516 0.05991088
-0.032763984 0.04649145 -0.117767684 0.11475758 -0.0049879146 -0.12468462 -0.104814366 -0.09881765
-0.14471328 -0.05886191 0.036795147 0.03674406 -0.12474909 -0.11991528 -0.115036406 0.0035365035
0.17083283 0.21330263 0.14928015 -0.03807914 -0.051818915 0.0489216 -0.16231143 0.012429672
-0.04149378 0.046946704 0.066210635 -0.074866325
00000000: 7b4d b33d 5f6e 12ba 5a40 93bc 63aa 833d
00000010: 18f3 3f3d ec3f 9dbd 389f 9bbd df49 7cbd
00000020: ceb2 d5bd 11e1 57bd 2d20 11be dbda b63d
00000030: 0c37 29bd aa05 cebd 1e4b 2dbe cd2a 363b
00000040: f1cd cabd ed3e b43d 9892 c63d 8cf2 983d
00000050: 28b9 6ebd d057 6fbd cf60 02bd 149b e73c
00000060: 9bb9 543d 80ba dabd 4221 263b bd52 263d
00000070: 10dc f9bd 7596 993b 7c32 5bbd 1bc3 40be
00000080: 176d 45bd 74e6 9c3d 59a3 d8bd 87b8 933d
00000090: 4657 27be a1f1 f5bc a41e 48bc ab3c 94bd
000000a0: 0108 a0bc 20d0 a5bd 49fb 8d3d a7be 69bd
000000b0: c3b8 073d df77 45bd 7cc4 9f3c c2b4 3d3e
000000c0: 6516 7e3d ccf6 3fbd 5a38 d23d bf16 0ebe
000000d0: 75fe d93b 09e4 583d db96 033e 1c65 753d
000000e0: 8733 06bd d26d 3e3d 2f30 f1bd 0606 eb3d
000000f0: a971 a3bb a65a ffbd eaa8 d6bd e860 cabd
00000100: b82f 14be 3019 71bd 82b6 163d f180 163d
00000110: 737c ffbd 2496 f5bd 3598 ebbd afc4 673b
00000120: cdee 2e3e 016c 5a3e e5dc 183e dff8 1bbd
00000130: 1240 54bd 0462 483d f834 26be d3a5 4b3c
00000140: 62f5 29bd 304b 403d 7199 873d 8453 99bd

fc3.weight f4 [10, 84]
-0.34884584 -0.16780628 -0.26115867 -0.12930977 0.14713964 0.065459065 0.0011895385 0.01874749
0.017668782 -0.15015383 -0.1335704 -0.24086154 -0.07358712 -0.05976471 0.07336495 -0.1656583
0.091732755 -0.18453398 0.031247554 0.07534402 -0.08599416 -0.10785405 -0.169287 0.14915141
-0.018322028 -0.045501813 -0.32385445 -0.46192336 0.026443737 0.065792106 0.02903848 0.11526803
-0.027575783 0.05845208 -0.4938255 -0.09158987 0.012692508 -0.0501205 -0.00081670843 0.0401647
0.119598314 -0.078261375 0.112647496 -0.093069434 -0.31875166 -0.01942843 -0.15631397 -0.36501572
0.15931173 0.091957815 -0.20392759 -0.11946261 -0.15257363 -0.062140167 -0.22095338 -0.20797525
0.13904049 -0.26732334 -0.17739354 0.0006627654 0.12700395 0.015615987 0.17500642 0.07282581
-0.28464654 -0.4392488 0.11480512 -0.26430932 -0.25275174 -0.21886985 0.086723395 0.092752084
-0.22635466 -0.15528622 -0.010256009 0.0013803538 -0.116888374 -0.21903855 0.11065563 -0.039484736
-0.12916583 0.09572105 -0.29207867 -0.3325555 -0.1405319 0.08025209 -0.0345976 -0.21519358
0.03841483 -0.10908337 -0.03066329 0.075452335 0.065761335 -0.061200988 0.028149111 -0.15171674
-0.16253272 0.08120248 0.02203343 -0.10459882 -0.107393645 0.07791948 -0.2596562 0.19441386
-0.21694669 0.011411447 -0.027775392 -0.02233568 -0.07601456 -0.037532914 -0.08017951 -0.2555493
-0.20985684 -0.23065878 0.043826 -0.3160586 -0.10222524 -0.21329905 0.11657044 -0.06102232
-0.11075964 -0.12626266 -0.13919719 -0.02603222 -0.09855362 0.00792923 0.030164167 -0.11754089
0.048303716 -0.15941173 -0.09079067 0.09323661 -0.0075433943 -0.19292437 0.1186627 0.00050428166
-0.08623471 0.09982855 0.052963067 -0.13288727 0.020521844 0.07443854 -0.17015582 0.07229389
-0.14225164 -0.16095293 -0.104017384 0.021868182 -0.21049218 -0.2061149 0.108161695 -0.19389802
-0.354815 0.12733506 -0.36100703 -0.023543242 0.010784604 0.13806057 0.096017264 -0.26595685
0.0088507235 -0.20605096 -0.1161253 0.060208954 0.13293129 0.030282417 -0.3904601 0.08700591
-0.12267831 0.030235248 -0.13491707 0.17526959 -0.029129297 -0.01517407 0.040124305 0.07820002
-0.08991029 -0.11794941 0.011714393 0.16500755 -0.18350632 0.041787222 -0.10090094 -0.18987626
-0.08581264 0.14874691 0.15819164 0.09264447 -0.16038153 -0.015075648 -0.41498291 -0.02061587
0.14050598 -0.043500226 0.10847218 -0.23568805 0.02153041 -0.17889561 -0.13902631 -0.0772796
7.735184e-05 -0.13262007 0.037624568 -0.5546641 0.037675887 0.030786162 -0.058120828 -0.19898546
0.044770397 0.0042948355 0.08552925 0.1186158 -0.17723922 -0.084480815 0.08651661 -0.008526454
-0.12597737 -0.023563597 0.056100752 0.047911983 -0.09820681 -0.016506888 0.01875678 0.056544412
0.06649903 -0.15373015 0.02769828 0.020890417 -0.17635937 0.1370948 -0.09129463 -0.029774167
-0.06718367 -0.5701487 -0.17017128 0.10852431 -0.21811055 0.082136445 0.04841641 0.007791016
0.056624617 -0.25187796 0.034175627 -0.04317852 -0.18608919 0.02572809 -0.13059635 0.018812485
-0.16009657 0.11094578 -0.33364746 -0.096045464 -0.1658544 -0.2228275 0.18895198 -0.03438511
00000000: ec9b b2be 69d5 2bbe 97b6 85be c869 04be
00000010: c6ab 163e 670f 863d 4aea 9b3a 5694 993c
00000020: 1fbe 903c edc1 19be aec6 08be 68a4 76be
00000030: d8b4 96bd d7cb 74bd 5d40 963d 54a2 29be
00000040: 62de bb3d 7af6 3cbe dffa ff3c f74d 9a3d
00000050: b51d b0bd 96e2 dcbd 9259 2dbe 26bb 183e
00000060: 1418 96bc 1c60 3abd 40d0 a5be 3881 ecbe
00000070: 89a0 d83c 03be 863d 1be2 ed3c a511 ec3d
00000080: 9ce6 e1bc 736b 6f3d b2d6 fcbe 7893 bbbd
00000090: 3df4 4f3c 274b 4dbd 6018 56ba be83 243d
000000a0: f6ef f43d 8047 a0bd bbb3 e63d 309b bebd
000000b0: 6b33 a3be 5f28 9fbc c510 20be 57e3 babe
000000c0: 9d22 233e 6154 bc3d 65d2 50be d0a8 f4bd
000000d0: 433c 1cbe b086 7ebd 9a41 62be 77f7 54be
000000e0: a160 0e3e 9bde 88be a7a6 35be 6fbd 2d3a
000000f0: 530d 023e 32da 7f3c e234 333e b325 953d
00000100: 31bd 91be 38e5 e0be f21e eb3d 8d53 87be
00000110: ad68 81be 6b1f 60be 099c b13d cef4 bd3d
00000120: 84c9 67be 5a03 1fbe d208 28bc fdec b43a
00000130: 2c63 efbd a44b 60be 6b9f e23d bfba 21bd
00000140: 0c44 04be 6609 c43d 568b 95be b744 aabe
00000150: 98e7 0fbe 355b a43d 37b6 0dbd b55b 5cbe
00000160: de58 1d3d 1a67 dfbd 9431 fbbc c186 9a3d
00000170: e1ad 863d e3ad 7abd f798 e63c a25b 1bbe
00000180: fa6e 26be 7c4d a63d 747f b43c e837 d6bd
00000190: 33f1 dbbd 4094 9f3d a8f1 84be 6d14 473e
000001a0: 4627 5ebe 14f7 3a3c 3889 e3bc 51f9 b6bc
000001b0: 86ad 9bbd 1dbc 19bd 2835 a4bd 5cd7 82be
000001c0: b6e4 56be d131 6cbe e482 333d 6fd2 a1be
000001d0: 775b d1bd 116b 5abe 7cbc ee3d 8af2 79bd
000001e0: f3d5 e2bd 004b 01be b589 0ebe 8641 d5bc
000001f0: 7bd6 c9bd 9ae9 013c d81a f73c 47b9 f0bd
00000200: 1eda 453d d43c 23be 75f0 b9bd d6f2 be3d
00000210: 942e f7bb f78d 45be 6e05 f33d c531 043a
00000220: d39b b0bd e972 cc3d cdef 583d 9a13 08be
00000230: 6d1d a83c 3c73 983d 543d 2ebe d20e 943d
00000240: 6aaa 11be d8d0 24be 1107 d5bd e724 b33c
00000250: 438b 57be c90f 53be e183 dd3d 348d 46be
00000260: 50aa b5be 1f64 023e ead5 b8be c2dd c0bc
00000270: e8b1 303c c05f 0d3e b3a4 c43d 7f2b 88be
00000280: a002 113c 06ff 52be 1ad3 edbd aa9d 763d
00000290: 241f 083e d512 f83c 63ea c7be 2830 b23d
000002a0: c43e fbbd e9af f73c b327 0abe df79 333e
000002b0: 90a0 eebc aa9c 78bc 6259 243d 5527 a03d
000002c0: e322 b8bd 768f f1bd baed 3f3c bdf7 283e
000002d0: 15e9 3bbe 1429 2b3d 27a5 cebd ec6e 42be
000002e0: 8abe afbd 1c51 183e fdfc 213e 62bc bd3d
000002f0: 0e3b 24be daff 76bc a478 d4be 9de2 a8bc
00000300: cde0 0f3e 4b2d 32bd aa26 de3d 3558 71be
00000310: 8b60 b03c 6930 37be ea5c 0ebe c444 9ebd
00000320: f437 a238 8ecd 07be 381c 1a3d 77fe 0dbf
00000330: 0852 1a3d 4333 fc3c 1b10 6ebd d8c2 4bbe
00000340: 2a61 373d b1bb 8c3b f629 af3d d7ec f23d
00000350: 337e 35be 4704 adbd 9f2f b13d 8ab2 0bbc
00000360: 3600 01be 7208 c1bc e7c9 653d 5b3f 443d
00000370: a720 c9bd 7439 87bc d2a7 993c 1d9b 673d
00000380: a530 883d 706b 1dbe 81e7 e23c 6122 ab3c
00000390: 8d97 34be 9462 0c3e aef8 babd f4e8 f3bc
000003a0: 9897 89bd 44f5 11bf 6141 2ebe fe41 de3d
000003b0: 5f58 5fbe 2737 a83d 4950 463d c74b ff3b
000003c0: 37ef 673d 26f6 80be befb 0b3d f6db 30bd
000003d0: 2a8e 3ebe b7c3 d23c 0dbb 05be a41c 9a3c
000003e0: 5bf0 23be 8b37 e33d d7d3 aabe 7cb3 c4bd
000003f0: bcd5 29be e42c 64be a17c 413e 67d7 0cbd

fc3.bias f4 [10]
0.084398925 0.019303188 0.0645061 -0.024331227 -0.094966255 -0.04675905 -0.033463906 -0.05449651
0.07239175 -0.014152842
00000000: 58d9 ac3d b821 9e3c c61b 843d 4852 c7bc
00000010: ab7d c2bd 6b86 3fbd 7311 09bd bc37 5fbd
00000020: 2042 943d 52e1 67bc
